Markov-Simple/src/model.pt (torch, 20834 bytes, 8 tensors)

alpha f4 [4, 1]
0	0xbf800000	-1.0
1	0xbf800000	-1.0
2	0xbf800000	-1.0
3	0xbf800000	-1.0

w f4 [16, 1]
0	0x3d252a0e	0.04032331
1	0x3d252a0e	0.04032331
2	0x3d252a0e	0.04032331
3	0x3d252a0e	0.04032331
4	0x3d252a0e	0.04032331
5	0xbd252a0e	-0.04032331
6	0x3d252a0e	0.04032331
7	0xbd252a0e	-0.04032331
8	0xbd252a0e	-0.04032331
9	0x3d252a0e	0.04032331
10	0x3d252a0e	0.04032331
11	0x3d252a0e	0.04032331
12	0x3d252a0e	0.04032331
13	0xbd252a0e	-0.04032331
14	0x3d252a0e	0.04032331
15	0x3d252a0e	0.04032331

transformer.wte.weight f4 [4, 1]
0	0x3eb8f119	0.36121443
1	0xbeb15639	-0.34636095
2	0x3ebd9ee8	0.37035298
3	0xbebedce0	-0.3727789

transformer.wpe.weight f4 [1024, 4]
0	0xbe219217	-0.15778385
1	0x3e2a6d73	0.16643314
2	0xbde799c7	-0.113086276
3	0x3e058cd1	0.13041998
4	0xbe0bfbfa	-0.1367034
5	0x3e174ea6	0.14776096
6	0xbe3932d7	-0.180858
7	0x3dd0d0c7	0.10196071
8	0xbe05417f	-0.13013266
9	0x3e300932	0.17191008
10	0xbdf9b290	-0.12192261
11	0x3e267220	0.16254473
12	0xbe067ddf	-0.13133954
13	0x3e209669	0.15682377
14	0xbe111ed4	-0.14171916
15	0x3e0b011d	0.13574643
16	0xbe26fb84	-0.16306883
17	0x3e063444	0.13105875
18	0xbe15cd60	-0.14629126
19	0x3e20177a	0.15633956
20	0xbe05716c	-0.13031548
21	0x3e1f6407	0.15565501
22	0xbe07eff7	-0.13275133
23	0x3e0ff11d	0.14056821
24	0xbe1146cd	-0.14187165
25	0x3e0b933d	0.13630386
26	0xbe3800e4	-0.1796909
27	0x3e04dda8	0.1297518
28	0xbe0337b2	-0.12814215
29	0x3e1d35de	0.1535258
30	0xbe0823a4	-0.13294846
31	0x3e2cbd61	0.16869117
32	0xbdfcac96	-0.12337606
33	0x3e174755	0.14773305
34	0xbe1836cd	-0.14864655
35	0x3e1d87cb	0.15383832
36	0xbe0f76a9	-0.14010109
37	0x3e0bb1ef	0.13642095
38	0xbe0da813	-0.13833646
39	0x3e193289	0.14960684
40	0xbe22fff4	-0.15917951
41	0x3e376395	0.17909081
42	0xbe03424d	-0.1281826
43	0x3e124919	0.14285697
44	0xbe2e1212	-0.16999081
45	0x3e101bb3	0.14073066
46	0xbe12f8bf	-0.14352702
47	0x3e27408a	0.16333213
48	0xbe134f39	-0.1438569
49	0x3e127335	0.1430176
50	0xbe1ea67b	-0.15493195
51	0x3e12961c	0.14315075
52	0xbe12add6	-0.14324126
53	0x3e31b57a	0.17354384
54	0xbe06edae	-0.13176605
55	0x3e1fd851	0.15609862
56	0xbe273094	-0.16327125
57	0x3e2d5ca5	0.16929872
58	0xbe0d79e0	-0.13816023
59	0x3e0b6309	0.13611998
60	0xbe00601b	-0.12536661
61	0x3e30e460	0.17274618
62	0xbe1acb6c	-0.15116662
63	0x3e01d964	0.12680584
64	0xbe058ec9	-0.1304275
65	0x3e201a08	0.1563493
66	0xbe231016	-0.15924105
67	0x3e2b74f8	0.16743839
68	0xbe1fc07f	-0.15600775
69	0x3e0e7478	0.13911617
70	0xbe03ac8f	-0.12858795
71	0x3e1deee3	0.1542316
72	0xbe139194	-0.14411002
73	0x3e2e56c0	0.1702528
74	0xbe2f8554	-0.17140704
75	0x3e18f7f9	0.14938344
76	0xbe273387	-0.1632825
77	0x3e1cd0f3	0.15314083
78	0xbe13074e	-0.14358255
79	0x3e04e6e6	0.12978706
80	0xbe209ac4	-0.15684038
81	0x3e24386a	0.16037145
82	0xbe30f3b6	-0.17280468
83	0x3df0d1a0	0.11758733
84	0xbe157b3f	-0.14597796
85	0x3e188a06	0.14896402
86	0xbe308aea	-0.17240492
87	0x3e0ad0bd	0.1355619
88	0xbe0ddbf5	-0.13853438
89	0x3e0db285	0.13837631
90	0xbe366ff8	-0.1781615
91	0x3e10171c	0.14071316
92	0xbe02f45a	-0.12788525
93	0x3e2c1a90	0.16807008
94	0xbe1940f5	-0.14966185
95	0x3dfe9659	0.1243102
96	0xbe04bd26	-0.1296278
97	0x3e2c2e6d	0.16814585
98	0xbe02e73a	-0.12783518
99	0x3e2fc065	0.17163236
100	0xbe10cbba	-0.14140216
101	0x3e174731	0.14773251
102	0xbe1c66ad	-0.15273543
103	0x3e2969b9	0.16544236
104	0xbe05399e	-0.1301026
105	0x3e2be9e8	0.16788447
106	0xbe134733	-0.14382629
107	0x3e19adc6	0.15007696
108	0xbe1ddfd1	-0.1541741
109	0x3e1b9871	0.1519487
110	0xbe19e75d	-0.15029664
111	0x3e1979b3	0.14987831
112	0xbe143dfc	-0.1447677
113	0x3e2881ea	0.16455808
114	0xbe1bdcb2	-0.15220907
115	0x3e025b93	0.12730245
116	0xbe104a7e	-0.14090917
117	0x3e14b7eb	0.14523284
118	0xbe2c5a89	-0.16831411
119	0x3df9ca8e	0.12196837
120	0xbe3b9c23	-0.1832128
121	0x3e23cf0f	0.15996955
122	0xbe21198d	-0.15732403
123	0x3ddd9192	0.10818781
124	0xbe11830c	-0.14210147
125	0x3e15978b	0.1460859
126	0xbe1ffb5e	-0.15623233
127	0x3e19fdce	0.15038225
128	0xbe14d798	-0.14535367
129	0x3e20cadf	0.15702389
130	0xbe14f71f	-0.14547394
131	0x3e19aee4	0.15008122
132	0xbe1caed1	-0.15301062
133	0x3e073336	0.13203129
134	0xbe0e0113	-0.13867597
135	0x3e1057c3	0.14095978
136	0xbe12485b	-0.14285414
137	0x3e12abd8	0.14323366
138	0xbdeeb6b1	-0.11655939
139	0x3e20a20c	0.15686816
140	0xbe04a72c	-0.12954396
141	0x3e22b9f0	0.15891242
142	0xbe27e14f	-0.16394542
143	0x3e0fd53c	0.14046186
144	0xbe2f5109	-0.17120756
145	0x3e0d5974	0.13803655
146	0xbe274796	-0.16335902
147	0x3e0f5e6d	0.14000864
148	0xbe329994	-0.17441398
149	0x3e2f0c48	0.17094529
150	0xbdf838c5	-0.12120203
151	0x3e085b6a	0.13316122
152	0xbe1e4427	-0.15455686
153	0x3e24e8d3	0.1610444
154	0xbde9c125	-0.114137925
155	0x3e2fa0d7	0.171512
156	0xbe05e5b8	-0.13075912
157	0x3e47a146	0.19495115
158	0xbe02a9a7	-0.1276003
159	0x3e087621	0.13326313
160	0xbe127d42	-0.14305595
161	0x3e20ea63	0.15714411
162	0xbe2c6f10	-0.16839242
163	0x3df38ec4	0.11892465
164	0xbe122e97	-0.14275585
165	0x3e3a6849	0.18203844
166	0xbe11a2ed	-0.14222308
167	0x3e17827e	0.14795873
168	0xbe1ecb8f	-0.15507339
169	0x3e1ff634	0.15621263
170	0xbe33e00d	-0.17565937
171	0x3dd5552f	0.10416638
172	0xbe0d4ceb	-0.13798873
173	0x3e2249e6	0.15848503
174	0xbe2d30a9	-0.16913094
175	0x3e223502	0.15840533
176	0xbe08870b	-0.13332765
177	0x3e0d2c07	0.13786326
178	0xbe264ec2	-0.16240981
179	0x3e000ee1	0.12505676
180	0xbe024918	-0.12723196
181	0x3e041a5e	0.12900683
182	0xbe119a35	-0.14218982
183	0x3e4d2bc4	0.20036227
184	0xbe27a5a6	-0.16371784
185	0x3e1d1ff3	0.15344219
186	0xbdfcff55	-0.12353388
187	0x3e2e3ae1	0.17014648
188	0xbe26f539	-0.16304483
189	0x3e2c3ee3	0.16820864
190	0xbe1ad020	-0.15118456
191	0x3e08895c	0.13333648
192	0xbdcf7226	-0.10129194
193	0x3e3ac5aa	0.18239465
194	0xbe1b4da9	-0.15166344
195	0x3e2c8473	0.168474
196	0xbe29e52b	-0.16591327
197	0x3e1993c7	0.14997779
198	0xbe39c72f	-0.18142389
199	0x3e019621	0.12654926
200	0xbe23d9d9	-0.16001071
201	0x3e0996ee	0.13436481
202	0xbe2ccc8f	-0.16874908
203	0x3e10d8bf	0.14145182
204	0xbe3ab58e	-0.1823332
205	0x3e2f68d5	0.17129834
206	0xbe0f899d	-0.14017339
207	0x3e05d29c	0.13068622
208	0xbe3570af	-0.17718767
209	0x3e2d2462	0.1690841
210	0xbdddb681	-0.108258255
211	0x3dee5fa3	0.11639335
212	0xbe1bd06e	-0.15216228
213	0x3e03964c	0.12850302
214	0xbe1e4de6	-0.15459403
215	0x3e23e431	0.16005017
216	0xbe0545b5	-0.13014872
217	0x3e45ca5a	0.19315472
218	0xbdfc4360	-0.12317538
219	0x3e24e79f	0.16103981
220	0xbe0b5658	-0.13607156
221	0x3e0b4f30	0.13604426
222	0xbe10194f	-0.14072154
223	0x3e18ee9d	0.14934774
224	0xbe00ea24	-0.12589318
225	0x3e28dd66	0.16490707
226	0xbdf53689	-0.119732924
227	0x3e1c58b5	0.15268214
228	0xbe2eb6d8	-0.17061937
229	0x3e0dab54	0.13834888
230	0xbe1af253	-0.15131502
231	0x3e1ea2c5	0.15491779
232	0xbe0fb7f5	-0.14035018
233	0x3e1f6887	0.15567218
234	0xbe2b3664	-0.16719967
235	0x3e14ef42	0.14544395
236	0xbdf2c8d1	-0.11854709
237	0x3e3bad8e	0.18327925
238	0xbe14e40a	-0.14540115
239	0x3e0cb22c	0.13739842
240	0xbe0d13ef	-0.13777135
241	0x3e2077e3	0.15670733
242	0xbdfa7de2	-0.122310415
243	0x3e1458cb	0.14486997
244	0xbe20dfb7	-0.1571034
245	0x3e14a4cc	0.1451599
246	0xbe1140ed	-0.14184923
247	0x3e22fa8b	0.15915887
248	0xbe14ea4a	-0.14542499
249	0x3e31dbbb	0.17368977
250	0xbe1efb4c	-0.1552555
251	0x3e13dc11	0.14439417
252	0xbe202442	-0.15638831
253	0x3e19c6f1	0.15017296
254	0xbe2b5413	-0.1673129
255	0x3e24298c	0.16031474

transformer.h.0.attn.c_attn.weight f4 [12, 4]
0	0xbe8e16f6	-0.27751893
1	0x3e8d6a84	0.27620327
2	0xbe7abcef	-0.24486135
3	0x3e9d359e	0.3070497
4	0xbe91119c	-0.28333747
5	0x3e8194c2	0.25308806
6	0xbe6dc448	-0.23219407
7	0x3e97fd06	0.2968523
8	0xbe95cc57	-0.2925746
9	0x3e9407d2	0.28912216
10	0xbe86299c	-0.2620362
11	0x3e81c16b	0.2534288
12	0x3e8e0676	0.27739304
13	0xbe84cc5d	-0.25937167
14	0x3e915bc8	0.28390336
15	0xbe937785	-0.28802124
16	0xbe784701	-0.24245836
17	0x3e97cbc2	0.29647642
18	0xbe9b58ce	-0.3034119
19	0x3e92b9ab	0.28657278
20	0xbe95bcec	-0.29245698
21	0x3e811caf	0.25217196
22	0xbe7a0891	-0.2441733
23	0x3e8cef0f	0.27526137
24	0xbe91fefc	-0.2851485
25	0x3e900b55	0.28133646
26	0xbe8c1e5a	-0.27366906
27	0x3e83adbd	0.2571849
28	0x3e9d200b	0.3068851
29	0xbe7db1d4	-0.24774867
30	0x3e893874	0.26800883
31	0xbe8a3d92	-0.270001
32	0xbd24bcd5	-0.040219147
33	0x3d4925b1	0.04910821
34	0xbd073f17	-0.03301915
35	0x3b7e00c4	0.003875778
36	0xbd3a78d6	-0.045525394
37	0x3dd55501	0.10416604
38	0xbcd8a91d	-0.026447827
39	0x3a28f8bd	0.00064457563
40	0x3d0b8d31	0.034070197
41	0xbdbb8e19	-0.09157962
42	0x3c4b7a45	0.012419288
43	0x3c4b354f	0.0124028465
44	0xbd31b077	-0.04338118
45	0x3dacd4c2	0.08439018
46	0x3b4630ad	0.0030241415
47	0x3c1a62c3	0.009422961

transformer.h.0.attn.c_proj.weight f4 [4, 4]
0	0xbc8489cf	-0.016178994
1	0xbcf23aa1	-0.029568972
2	0x3d1b1b13	0.037867617
3	0xbd691046	-0.056900285
4	0x3d7abe49	0.061216626
5	0x3d53ea68	0.05173722
6	0xbd9ad38a	-0.07559879
7	0x3d8d1ef6	0.06890671
8	0xbd6521e6	-0.05594053
9	0xbd5577f6	-0.052116357
10	0x3d9b8b08	0.075948775
11	0xbd97ac72	-0.07405938
12	0x3cfa6f89	0.030570762
13	0x3d80421e	0.06262611
14	0xbda3b5f0	-0.07993686
15	0x3d6ab448	0.057300836

transformer.h.0.mlp.c_fc.weight f4 [16, 4]
0	0xbe9a69d6	-0.3015887
1	0x3e924457	0.28567764
2	0xbeb1f524	-0.3475734
3	0x3ea67c13	0.32516536
4	0x3eb50510	0.35355425
5	0xbea34ee0	-0.31896114
6	0x3ebc0855	0.36725107
7	0xbebd4fd7	-0.36974975
8	0xbe932cbd	-0.2874507
9	0x3e899f6d	0.26879445
10	0xbe9cbf7d	-0.30614844
11	0x3ea9ca68	0.33162236
12	0xbe9378b4	-0.28803027
13	0x3e969aa3	0.29414853
14	0xbe91ac55	-0.2845179
15	0x3e9c820c	0.30567968
16	0xbe9ed45f	-0.310214
17	0x3e828275	0.25490156
18	0xbea8e49f	-0.32986924
19	0x3ea50995	0.32233873
20	0xbe81cb69	-0.25350502
21	0x3ea8d141	0.32972148
22	0xbea1e1fd	-0.31617728
23	0x3ea9ec7b	0.33188233
24	0xbe91ec1a	-0.28500444
25	0x3eab4cef	0.33457133
26	0xbe9fbeaf	-0.31200168
27	0x3e9db436	0.30801553
28	0xbe9f5730	-0.31121206
29	0x3e992190	0.2990842
30	0xbe9a9546	-0.30192012
31	0x3eaed4d1	0.3414674
32	0x3ebad281	0.36488727
33	0xbeb17be9	-0.34664848
34	0x3ec0bccb	0.37644038
35	0xbeb2ab0c	-0.34896123
36	0xbea9ced7	-0.3316562
37	0x3eb42932	0.3518768
38	0xbeb4be77	-0.35301563
39	0x3ebda082	0.3703652
40	0xbea8edef	-0.3299403
41	0x3ead16cc	0.33806455
42	0xbeae0013	-0.33984432
43	0x3eaa7be1	0.33297637
44	0x3eb161c0	0.3464489
45	0xbeb308ab	-0.3496755
46	0x3ec1b77d	0.37835303
47	0xbec00dde	-0.3751058
48	0xbe8ef4de	-0.27921194
49	0x3eab1518	0.3341453
50	0xbea59dca	-0.32346946
51	0x3eb5c053	0.35498294
52	0xbe9ab577	-0.30216572
53	0x3ea1b837	0.31585857
54	0xbeb06ef0	-0.3445964
55	0x3e958dcb	0.29209742
56	0x3ebe3d99	0.3715637
57	0xbeb7c91c	-0.35895622
58	0x3ecaa6a9	0.39580277
59	0xbebd1ca5	-0.36935917
60	0xbea03201	-0.3128815
61	0x3ebb1e94	0.36546767
62	0xbeb1b660	-0.34709454
63	0x3eacb9bc	0.33735454

transformer.h.0.mlp.c_proj.weight f4 [4, 16]
0	0xbea99c08	-0.33126855
1	0x3eb7bfb1	0.35888436
2	0xbea11d9d	-0.31467906
3	0xbe908371	-0.28225282
4	0xbeae931f	-0.3409662
5	0xbeb3d578	-0.351238
6	0xbea0ce73	-0.31407508
7	0xbeb42f05	-0.35192123
8	0x3eb6a39f	0.35671708
9	0xbeb0bae3	-0.34517583
10	0xbea66054	-0.32495368
11	0x3eaf0f0d	0.3419117
12	0xbeacbe84	-0.33739102
13	0xbeb1fe79	-0.3476446
14	0x3ebada36	0.36494607
15	0xbea86d29	-0.32895783
16	0x3ea6c7cc	0.32574308
17	0xbeb0015f	-0.34376046
18	0x3e99c01b	0.30029377
19	0x3e994663	0.29936513
20	0x3ea65252	0.3248468
21	0x3e9da5a1	0.30790427
22	0x3ea6bdec	0.32566774
23	0x3eaae90d	0.3338093
24	0xbebfbe07	-0.37449667
25	0x3ea086b8	0.31352782
26	0x3ea1198b	0.314648
27	0xbebc62c9	-0.36794117
28	0x3eaa6cb0	0.33286047
29	0x3e9c7a01	0.30561832
30	0xbea61696	-0.32439107
31	0x3ea9f79d	0.33196726
32	0xbeadc936	-0.33942574
33	0x3eaf10fe	0.34192652
34	0xbea819a1	-0.32832053
35	0xbe91d98f	-0.28486297
36	0xbead0787	-0.33794805
37	0xbeb12683	-0.34599695
38	0xbea9d305	-0.33168808
39	0xbe9733d9	-0.29531744
40	0x3ea4634e	0.32107013
41	0xbeb34470	-0.3501315
42	0xbea44ff2	-0.32092243
43	0x3ebf3ac3	0.3734952
44	0xbea9122c	-0.33021677
45	0xbea0ed5c	-0.3143109
46	0x3eba9538	0.3644197
47	0xbea78052	-0.32715088
48	0x3eae1987	0.3400385
49	0xbebf65e6	-0.3738243
50	0x3ea1fd01	0.3163834
51	0x3e9e851e	0.30960935
52	0x3ea31632	0.3185287
53	0x3ea13ecf	0.31493232
54	0x3e9df7ef	0.3085322
55	0x3ea197e2	0.3156119
56	0xbec35d26	-0.38157004
57	0x3eb0fc5c	0.34567535
58	0x3eac8eda	0.33702737
59	0xbeb73f15	-0.35790315
60	0x3eb447ab	0.35210928
61	0x3ea44cbd	0.32089797
62	0xbeb8bfd4	-0.36083853
63	0x3eb506fe	0.35356897
