Markov-LLM-depth/src/None/mlp-c_fc-id0/weights/mlp-c_fc-id0-iter1.npy (npy, 1152 bytes, 1 tensors)

array f4 [32, 8]
000000 ec 3d fd 3b 65 8c 7c 3c 2a 88 d8 3c e7 1d 75 3c
       0.007728329 0.015414332 0.026432116 0.014960743
000010 4e 8f 0d 3c b9 9b 8f 3c 15 1c 01 bc 77 16 98 3c
       0.0086401235 0.017530309 -0.00788023 0.0185654
000020 41 fe a2 bb 80 91 f2 3b 9b 2f ac 3c c6 83 b3 3c
       -0.004974157 0.007402599 0.021018794 0.02191342
000030 83 91 25 3d c2 d4 86 3c 7c 12 e5 3c fe ae 65 3c
       0.040421974 0.016458873 0.027962916 0.014018772
000040 f2 ea 4a bc e6 99 0d bd a6 18 7c bb 34 01 ab 3c
       -0.012385117 -0.034570597 -0.003846684 0.020874597
000050 fb 41 7e bb d7 95 96 bc 7a c4 cf bc 85 6f 83 3c
       -0.0038796652 -0.018381996 -0.025362242 0.016044388
000060 fa fc 81 bb 65 bb ab bb e9 22 42 3c 2e 6a ff 3c
       -0.0039669247 -0.005240845 0.011849144 0.03117856
000070 0e d0 a7 3b d5 0c e2 bc f4 55 83 bb 1e d4 5d 3b
       0.0051212376 -0.02759401 -0.004008049 0.0033848356
000080 33 a8 54 bb 11 57 80 3b ae b1 5c bc a3 51 c3 bc
       -0.0032448887 0.003916629 -0.0134700965 -0.023842638
000090 a0 66 12 3d d6 cd 69 bc 19 8b a3 bc 33 f0 87 bc
       0.035742402 -0.0142702665 -0.019963788 -0.016594028
0000a0 6d c9 a6 bc ad 90 76 3b ae 98 7e bb e6 30 ed 3c
       -0.02035972 0.0037622855 -0.0038848328 0.02895398
0000b0 a6 cb 8e 3b bd 8c 00 3c 9c 8e 1b bc 43 bf c5 ba
       0.004357773 0.007846055 -0.00949445 -0.0015086908
0000c0 f9 86 80 3c 60 e9 c5 bb d8 5b e1 bc bc 29 90 3c
       0.01568936 -0.0060397834 -0.027509615 0.017598026
0000d0 6a 26 80 bc 94 cd e6 3c 2c e2 8f 3b 41 91 44 bc
       -0.015643317 0.0281742 0.0043909755 -0.011997522
0000e0 ad 8f 26 bd 53 79 8d bb ac ef 81 bc eb a9 75 bc
       -0.040664364 -0.0043174415 -0.015861355 -0.014994125
0000f0 dc 18 31 bc 84 4a ee 3c 3d 27 c1 bb 9e 61 91 3c
       -0.01080915 0.029088266 -0.00589457 0.017746743
000100 f4 e1 b7 bb 3a 1c e1 3c 10 29 d4 bb d9 a5 d4 ba
       -0.0056116525 0.02747928 -0.0064746216 -0.0016223743
000110 cd ab c1 3b d5 c4 db bc 3e 7a 1e bd 37 95 b5 ba
       0.005910373 -0.026827255 -0.038690798 -0.0013853674
000120 f0 65 a8 3c 0f e4 5c 3c 21 27 9e 3c 04 59 20 3d
       0.02055642 0.013482108 0.019305767 0.039147392
000130 af 7e 90 3c 99 68 f4 3b c9 52 09 3b 58 f9 b7 3c
       0.017638532 0.007458758 0.0020953885 0.022457764
000140 81 65 82 bc 42 e8 fd 3b e4 ef 10 3d b6 d4 2e bd
       -0.015917541 0.0077486346 0.035385028 -0.042683326
000150 4c 02 be 3b 04 bd cb bb 79 8e 21 3d 2c 29 6c bb
       0.0057986137 -0.006217601 0.039442513 -0.0036035283
000160 62 b6 e4 ba 6a c3 4e bc 46 a6 2b bd b8 92 44 3b
       -0.0017449374 -0.0126198325 -0.041906618 0.0029994678
000170 5a 04 f4 ba 44 5e 87 bb 44 af d4 bc b0 a8 ae 3c
       -0.001861702 -0.0041311104 -0.02596248 0.02132067
000180 83 79 8a 3c 5e c3 32 bc 63 61 20 bc a9 f2 28 3d
       0.016903644 -0.010910837 -0.009788844 0.041247044
000190 9a 48 d5 3c a6 c1 57 3c 68 e4 23 bc 5e 80 7b bb
       0.026035596 0.013168728 -0.010003187 -0.0038376073
0001a0 39 83 be ba 92 a8 3c 3a 47 98 80 3c 80 e5 8f ba
       -0.0014534957 0.000719675 0.015697611 -0.001097843
0001b0 96 c4 40 3c 97 28 67 3c c7 d2 d5 ba df 28 20 bc
       0.01176562 0.0141087985 -0.0016313427 -0.009775369
0001c0 07 b7 d9 bc 59 5d 4d 3b fb be 30 3c f0 92 10 3a
       -0.026576532 0.0031336157 0.010787721 0.00055150595
0001d0 76 87 2e 3c aa bd 8f bc 8c 37 8e bc 25 55 9c 3c
       0.010652414 -0.017546494 -0.017360471 0.019083569
0001e0 66 4d 45 bd 4e 76 15 3c 5c 67 be bc 95 d7 99 3b
       -0.048169516 0.009122444 -0.023242645 0.004694889
0001f0 fc 1a a4 3b 7d 3f 87 3c 3b 0f 57 bd 5f 93 13 bc
       0.0050080996 0.016509766 -0.05250476 -0.009007304
000200 b7 aa b5 3b 06 e0 81 3b 1b b8 b1 3b 35 ff ed ba
       0.0055440324 0.0039634733 0.0054235584 -0.0018157723
000210 57 4f 4d 39 5b 42 04 bc ad 27 99 bb fe aa 8d 3c
       0.0001957988 -0.008072461 -0.004673919 0.01729345
000220 cc b0 c4 38 a6 e3 6e 3d 57 a0 94 3c bc f8 46 bd
       9.378939e-05 0.05832257 0.018142862 -0.048577055
000230 5c ab 5d 3c 07 4c 43 3c ea 14 d1 bb 42 56 51 bd
       0.013529625 0.011919982 -0.006380667 -0.051107652
000240 5c 3c d7 3c 04 eb 1c 3c ec a7 86 3c 62 60 3f bb
       0.026273899 0.0095775165 0.016437493 -0.0029201736
000250 2e c5 bf 3a 38 c5 98 3a b0 aa 42 3c d2 52 4b ba
       0.0014630908 0.0011655455 0.011881515 -0.00077561766
000260 a1 da f4 bb 17 91 0e 3d 3c da da 3c c3 6c 44 bd
       -0.0074723517 0.034806337 0.02671539 -0.047955286
000270 5a 40 e4 bb 4d 2f 0a bc 59 58 15 3d d4 4f 13 3d
       -0.006965679 -0.008434129 0.036461208 0.035964802
000280 40 26 31 3b 83 2c af bb b1 e8 a0 bc 76 0c f8 bb
       0.0027030855 -0.0053458824 -0.019642206 -0.007569845
000290 21 d9 a4 3c 1b 23 0c 3d fd ea 28 3d 53 8d 97 3c
       0.020123066 0.034213167 0.041239727 0.018500006
0002a0 44 28 cc bc b1 28 33 bc f3 08 bb bc d3 3f 0f bc
       -0.024921544 -0.010934995 -0.022831416 -0.008743244
0002b0 85 b2 97 bc 7f 7f 01 3d 1f 71 ad 3c 47 01 9c 3c
       -0.018517742 0.03161573 0.021172104 0.019043578
0002c0 1a da 91 bc 6a 2e 04 bc ef f9 c7 3b f5 3a 5e 3b
       -0.017804194 -0.008067707 0.0061027925 0.0033909653
0002d0 c6 ed 22 3c 1a a3 04 bb 37 d2 33 bc c2 1b 04 bd
       0.009944385 -0.0020238818 -0.010975412 -0.032253034
0002e0 4a bc fb b9 4f 5d cf bc 87 3e 43 3a 89 71 00 bc
       -0.00048014737 -0.025313048 0.0007447977 -0.007839569
0002f0 e0 43 08 ba 46 27 5a bc d8 a2 97 3b 7b f0 dd 3c
       -0.00051981024 -0.013315028 0.004627567 0.02709221
000300 c9 00 a1 bc 69 53 cd 3c 0e 85 5c bd c6 60 cc 3b
       -0.019653695 0.025064187 -0.05383783 0.006237122
000310 8f ae 0d bc c4 f4 f9 bb 39 d0 04 bd 76 6b 25 ba
       -0.008647575 -0.0076280553 -0.03242514 -0.00063102634
000320 5d 2b c2 39 aa d4 86 3c 44 18 84 bc a8 e5 c5 bc
       0.00037034872 0.016458828 -0.016124852 -0.02415736
000330 ce dc 17 bb d1 af d0 3c ec 24 91 bc 68 7e 38 bd
       -0.0023172381 0.02547446 -0.017717801 -0.045042425
000340 89 a6 39 3b 07 9c 02 3d f5 62 aa bc fa b9 03 3d
       0.0028328022 0.03188708 -0.02079914 0.032159783
000350 96 ab 2b bc ab 3a 44 bc 77 1c 9f 3b 77 a1 81 3c
       -0.010477921 -0.011976878 0.004855688 0.015824063
000360 72 e7 8d bc dd 0b 17 3d eb 0c d5 3c 52 72 50 3b
       -0.017322276 0.036876548 0.026007136 0.0031806421
000370 41 0d 46 ba 39 d0 3d bc 85 e0 69 3b 08 7d eb bb
       -0.00075550756 -0.011585289 0.0035686803 -0.0071865357
000380 56 8e a4 3c 53 3b 15 bc 85 97 85 bc f4 d2 7f bb
       0.020087402 -0.009108382 -0.016307602 -0.003903565
000390 26 ea ed 3b b2 57 aa 3c b0 e8 a3 3c f1 c8 8b 3c
       0.0072605787 0.02079377 0.020008415 0.01706359
0003a0 33 25 55 b9 47 6b 87 bc c7 e7 a4 bc 0a 8c 06 bc
       -0.00020327121 -0.016530646 -0.020130051 -0.008212099
0003b0 b6 80 c2 bc 1a 51 28 3c 4b 24 ac bb 45 91 cb bb
       -0.023743015 0.010273242 -0.00525335 -0.006212386
0003c0 79 b2 c5 3c 6a 31 b3 3c 64 cf 91 bc 5d 19 da bb
       0.024132954 0.021874148 -0.017799087 -0.0066558556
0003d0 b5 93 d2 3c 4c 0c c6 bc 1e d2 ce b8 c7 0e 4b 3b
       0.025705198 -0.024175785 -9.861983e-05 0.003098415
0003e0 37 e5 39 bc c5 6f 31 3c 7a ee c6 3c 53 e8 e3 bc
       -0.011346153 0.010829871 0.024283636 -0.027820742
0003f0 37 ac bb 3b 82 23 1d 3b ce 60 11 bb 89 7b 06 3c
       0.0057273167 0.0023977463 -0.0022182944 0.008208164
