Markov-LLM-depth_modified/src/exps/markov/base/base_lr0.002_bs16x1_1nodes_seed=0/mlp-c_fc-id0/weights/mlp-c_fc-id0-iter30.npy (npy, 1152 bytes, 1 tensors)

array f4 [32, 8]
00000000: ddd7 c3bc c354 86bb ac90 ffbb e56f a0bc
00000010: 12ee 8fbc 43ea a3ba 6e80 793c af05 823d
00000020: c3bb 62bc 107f 51bc 7aff 54bc c2e0 3b3b
00000030: 5c2c f9bb 16c5 2f3c e3ac 37bd ed77 05bc
00000040: 6db6 e8bb 2880 2a3c 2d1a 7e3c d92d 9b3c
00000050: 862a 053d cafa ea39 a6ab c23a 745e 643c
00000060: d9be 8b3c b8ba 8abc 13a7 5c3c 7a79 893c
00000070: ee67 0b3d 08d1 8aba c040 0d3d 2fe2 34bc
00000080: 9f23 943b 4d96 15ba efac deba aa42 e7bc
00000090: 9c0a 993c f56f ce3b be03 823c 928e 51bb
000000a0: 0514 1ebc 0369 be3c a839 2cbc b057 8d3c
000000b0: c3c4 303c 2f82 1bbc 54b8 283c 0691 1f3d
000000c0: f527 91bb c8f2 aabc 4cad b3bc 3e45 9b39
000000d0: 9304 e2bc 7eef 0f3c 5c3d 8f3a 39c2 ab3c
000000e0: 3ccd acbc 05c8 08ba 14db edbc 27a4 59bc
000000f0: e19a 41bb 8fc3 3b3c 4173 48bc 09ac 303c
00000100: cce5 a33c 329a f53b aa52 5cbb 8644 093c
00000110: 307c 923b c7f6 b33c eb71 a63b 961d 16bd
00000120: 32e3 1c3c 7c8b 88bb 8a5d 13bc d4b8 523b
00000130: 9f62 e0bb 815e e63b 84aa 533d 605b f43a
00000140: 71bf 913b 5b3a a0bc 0e76 52bc b91e 173c
00000150: ee1a c3bb f4fd 3b3c fa53 de3c 622c 29bc
00000160: 956a e7bc 3649 fe3a 2120 c0ba 2f7c 673c
00000170: de11 45bc b56f 0e3d 56ef cfbb fd11 77bc
00000180: 6e54 3f3d b215 f13c 3c9a 03bd 3d53 10bc
00000190: d8a2 a7bc 23a1 e23b 170d 603a 722e 5bba
000001a0: 6b2f 79bc e526 243d ebf4 9d3b 1b1e 8bbc
000001b0: abf6 9d3a 2ecc d43c d14c a9bb 86b5 513c
000001c0: e8ee 17bb 25f2 9bbc 1d87 aabc 63ab dc3c
000001d0: 37e3 cf3c 0008 eabc bbee e7bc cc02 9a3a
000001e0: 26cf b2bc fe53 9cbc c233 0f3d 0fa1 11bd
000001f0: 7afc 2ebd 9672 993b 1b23 fabb 47cd 50bc
00000200: 49ed ab3c a8cc 6fbd 21e8 c53b 39d3 0f3c
00000210: 5120 11bb 1f51 5fbc db15 593c 548d 3cbb
00000220: e4fe c2bc 2907 3dbc 070c 293c be1a ae3c
00000230: 9069 e8bc f736 a23c 6598 0c3d cec2 a2b9
00000240: 7138 453b b692 d7bc 5496 f5ba 0074 66bd
00000250: 065f 8bba ce81 24bc 980b 11bd f9da e4ba
00000260: 8617 4f3c 15d3 fc3c 549a c63c 01d9 5cbc
00000270: 9b8c 07bc 49fa 58bb 9cce 08bc 88a5 b73c
00000280: a662 33bb fcbd 87bc 280c 17bb aee1 81bc
00000290: 6dae 60bb b60b 3cbd 0ae7 0cbd 578d bd3b
000002a0: 578c 2c3c fcca 523b 3453 533c 7ecd 703c
000002b0: 6771 4e3c 0186 3fbd e73c f4bb 581a c0bc
000002c0: 4a85 c93c 1be9 833b 214f 413b 3855 8ebc
000002d0: 220c 21bc 08e5 743c aec7 7abc 095e 20bc
000002e0: f78d a73c 4b84 203c 3c19 e5bb 7574 ca3c
000002f0: 1712 a4bc 37ea fd3c cb65 a13b 3030 113c
00000300: 39a0 a83c 6eb9 b9bc 571f b43b 5ba5 f0bc
00000310: 7c45 9dbc 4c55 72bd 42d0 2dbd 3391 193c
00000320: 2af3 dbbc 5b04 23bc 7c58 2c3c afa1 eabc
00000330: 8288 f93b 6ae0 14bc 496f dcbc ba23 af3b
00000340: a209 90bc fab2 1dbc 6947 123c d56b 04bc
00000350: 7a30 143c 16b3 573c f773 643c 1293 0d3c
00000360: 01c4 983c 64ec dbbb 6375 ce3b 6435 9a3c
00000370: 53a9 3d3c 1a91 ca3a c568 be3a 2bf4 2c3c
00000380: 57a8 fdbb 93e5 e03c 3151 913a 8cfd adbb
00000390: 134b 323b 5ccb 5c3b 7357 d8bc cf32 d03c
000003a0: f9a4 f93b 0e12 00bd 7b32 863a 1ecd 0f3b
000003b0: 362d c13c a289 493d ac0c 713c eb3b 8c3c
000003c0: ec72 6eba 0484 f3bc 59ca f03b 238a 953c
000003d0: 6b93 1d3d 2636 54bc d2bd adbc 4e9a cebc
000003e0: 5945 4f3b f131 2abc 01fc ae3c c216 243a
000003f0: 4fb0 a2bc 7f61 8139 0e25 c8bb 7c48 e13c
-0.023906643 -0.00409946 -0.0077992287 -0.019584605 -0.017569575 -0.0012505729 0.015228374 0.0634874
-0.013838711 -0.012786642 -0.0130003635 0.0028667902 -0.007604165 0.010728141 -0.044842612 -0.008146268
-0.007101825 0.010406531 0.0155091705 0.01894276 0.032511257 0.0004481881 0.0014852181 0.013938535
0.017058777 -0.016934738 0.013467568 0.016781557 0.034034662 -0.0010590861 0.03448558 -0.0110402545
0.004520848 -0.00057062955 -0.0016988794 -0.02823003 0.018681817 0.0062999674 0.015870925 -0.0031975848
-0.009648328 0.023243433 -0.010511793 0.017253727 0.010789099 -0.009491487 0.0102978535 0.038956665
-0.004429812 -0.02086772 -0.02193322 0.00029615493 -0.027590072 0.008785127 0.0010928321 0.020966636
-0.021093957 -0.00052177935 -0.029035129 -0.013283766 -0.0029541778 0.011460199 -0.01223451 0.010783204
0.020007037 0.007495188 -0.0033618608 0.008378154 0.0044703707 0.021968259 0.005079498 -0.03664931
0.009575652 -0.0041670185 -0.008994469 0.0032153623 -0.006847694 0.0070303087 0.05167629 0.0018642955
0.0044478704 -0.019559076 -0.012845529 0.009223633 -0.005954138 0.011474121 0.027139653 -0.010325523
-0.028249064 0.0019400481 -0.0014658013 0.014128729 -0.012028186 0.0347745 -0.0063456697 -0.015079972
0.046711378 0.02942929 -0.03212951 -0.008808908 -0.020463392 0.0069161817 0.00085468724 -0.0008361108
-0.015209059 0.040076155 0.0048204563 -0.016982129 0.0012051662 0.025976267 -0.005166628 0.012799626
-0.002318317 -0.019036362 -0.02081638 0.026937192 0.0253769 -0.028568268 -0.028312078 0.0011750101
-0.021827292 -0.01908302 0.03496147 -0.035553988 -0.04272125 0.004682849 -0.0076335794 -0.012744254
0.02098717 -0.058544785 0.006039635 0.008778387 -0.0022144506 -0.013630181 0.01324984 -0.0028770762
-0.023803182 -0.011537352 0.010317809 0.021252986 -0.028370649 0.0198016 0.034325022 -0.0003104419
0.0030093456 -0.026315074 -0.0018736818 -0.05626297 -0.0010633178 -0.0100407135 -0.035411447 -0.0017460278
0.012639886 0.03086237 0.024243511 -0.013479472 -0.008273269 -0.0033108166 -0.008350041 0.022417799
-0.0027372031 -0.016570084 -0.0023048017 -0.015854683 -0.0034283653 -0.045909606 -0.034400024 0.0057846713
0.0105315065 0.0032164445 0.012898255 0.014697431 0.012600279 -0.046758655 -0.007453549 -0.023450062
0.02459969 0.004025591 0.0029496627 -0.01737462 -0.009829553 0.014947183 -0.015306396 -0.009788045
0.020453436 0.009797166 -0.0069915336 0.024713734 -0.020028157 0.030995471 0.0049254647 0.008861586
0.020584213 -0.022671428 0.0054969 -0.029375723 -0.019198172 -0.059163377 -0.04243494 0.009372997
-0.026849348 -0.009949769 0.010519143 -0.02864155 0.00761515 -0.009086708 -0.026908534 0.005344835
-0.017582718 -0.009625191 0.008928158 -0.00808235 0.009044761 0.013165256 0.013943664 0.008641021
0.01864815 -0.0067115296 0.0063006147 0.018824287 0.011576015 0.0015454621 0.0014527073 0.010556261
-0.007741015 0.02745322 0.0011086819 -0.005309766 0.0027205392 0.0033690548 -0.026408887 0.025414852
0.007618543 -0.03126722 0.0010238433 0.0021942328 0.023581129 0.049203523 0.014712494 0.017118415
-0.0009096104 -0.029726036 0.0073483405 0.018254345 0.038470667 -0.012952363 -0.021208677 -0.025220063
0.0031627028 -0.0103878835 0.0213604 0.00062594947 -0.019859461 0.00024677438 -0.006107933 0.027500384
