Markov-LLM-depth_modified/src/exps/markov/base/base_lr0.002_bs16x1_1nodes_seed=0/mlp-c_fc-id0/weights/mlp-c_fc-id0-iter20.npy (npy, 1152 bytes, 1 tensors)

array f4 [32, 8]
00000000: f1d5 c3bc a637 86bb 0b96 ffbb 5673 a0bc
00000010: 73df 8fbc cc26 a4ba 2977 793c 0803 823d
00000020: 4cbe 62bc e785 51bc f1f9 54bc 0fe7 3b3b
00000030: fe50 f9bb 9cce 2f3c 7bab 37bd 7b73 05bc
00000040: e9ba e8bb 3896 2a3c 1315 7e3c 412b 9b3c
00000050: 3436 053d e83a e939 5e21 c23a 8046 643c
00000060: f2b9 8b3c 3abc 8abc 59a7 5c3c c479 893c
00000070: 9867 0b3d b39d 8aba 2f42 0d3d 0fe0 34bc
00000080: 7428 943b 2b07 16ba 6087 deba 5b46 e7bc
00000090: 7908 993c 987c ce3b b404 823c 8b80 51bb
000000a0: 841e 1ebc b967 be3c 6e35 2cbc ad55 8d3c
000000b0: d1c2 303c df75 1bbc 19b7 283c 2a92 1f3d
000000c0: 992b 91bb 48f9 aabc e9aa b3bc 3a8d 9a39
000000d0: c40c e2bc 77fb 0f3c 995f 8f3a efc9 ab3c
000000e0: 96cd acbc d1c8 08ba cad7 edbc 68a6 59bc
000000f0: 6492 41bb dbc8 3b3c eb7a 48bc 16a8 303c
00000100: 42e3 a33c 9594 f53b fe64 5cbb fa48 093c
00000110: 647b 923b cbfa b33c 4e6b a63b 951c 16bd
00000120: 07d5 1c3c 1670 88bb c359 13bc 67b6 523b
00000130: 0e34 e0bb bb53 e63b eca7 533d 5d0e f43a
00000140: 6cb2 913b 0f3e a0bc 6971 52bc b823 173c
00000150: 0146 c3bb c205 3c3c e358 de3c 2924 29bc
00000160: 986e e7bc 9f45 fe3a 93fc bfba 237c 673c
00000170: ff0c 45bc 1770 0e3d dbfa cfbb b60e 77bc
00000180: 4c53 3f3d db16 f13c 3f99 03bd f354 10bc
00000190: 50a0 a7bc fe9d e23b b5b8 5f3a 870e 5bba
000001a0: d83c 79bc 1a26 243d 65f5 9d3b af1c 8bbc
000001b0: 1cc7 9d3a 79d1 d43c ea4a a9bb f3bd 513c
000001c0: e1ed 17bb 1cf3 9bbc d187 aabc cba8 dc3c
000001d0: 89dd cf3c 4a04 eabc 7aec e7bc 0c3c 9a3a
000001e0: c6d0 b2bc 8457 9cbc 2435 0f3d b5a1 11bd
000001f0: 68fe 2ebd 0d7c 993b 7114 fabb 63cb 50bc
00000200: 62f0 ab3c 62cf 6fbd b2e8 c53b 9dd2 0f3c
00000210: a668 11bb b44f 5fbc 1a27 593c be7c 3cbb
00000220: 85fd c2bc ba05 3dbc 7c0b 293c 681b ae3c
00000230: fb6a e8bc 6932 a23c 1399 0c3d 8532 a2b9
00000240: b83c 453b 4992 d7bc 598d f5ba 8b75 66bd
00000250: 867c 8bba ec81 24bc 4d0b 11bd a5b8 e4ba
00000260: 9615 4f3c 61d1 fc3c 129b c63c b0de 5cbc
00000270: cb89 07bc ade7 58bb 4ecf 08bc 3da7 b73c
00000280: a23f 33bb b1c2 87bc e80f 17bb 86e2 81bc
00000290: a715 61bb 9c0a 3cbd a1e1 0cbd cf90 bd3b
000002a0: 8489 2c3c 7cfe 523b d64e 533c 22ca 703c
000002b0: 5394 4e3c 4e88 3fbd e15d f4bb 4020 c0bc
000002c0: 8884 c93c 1bee 833b 725b 413b ce56 8ebc
000002d0: ed04 21bc 6be4 743c d6c6 7abc 6966 20bc
000002e0: e48b a73c 1191 203c c71d e5bb a073 ca3c
000002f0: 4401 a4bc 68e6 fd3c 2a47 a13b 9b21 113c
00000300: 0ea1 a83c 35c3 b9bc 6423 b43b 24a2 f0bc
00000310: 335c 9dbc d453 72bd 1dca 2dbd 0ea8 193c
00000320: 50f2 dbbc 4d1b 23bc 995e 2c3c d59e eabc
00000330: 3629 f93b 78d5 14bc 1864 dcbc 6d51 af3b
00000340: e60a 90bc d4ad 1dbc e548 123c 966f 04bc
00000350: 663b 143c f6b6 573c 8270 643c 9487 0d3c
00000360: f2c4 983c 5edb dbbb 6272 ce3b 6e37 9a3c
00000370: a2c3 3d3c 342a ca3a 97ee bd3a bbe9 2c3c
00000380: 07b4 fdbb 5fe0 e03c 9969 913a b804 aebb
00000390: b821 323b ace9 5c3b be54 d8bc ff39 d03c
000003a0: 9ab0 f93b 5d17 00bd 5a61 863a 2de3 0f3b
000003b0: f916 c13c 738d 493d d918 713c ee46 8c3c
000003c0: 2d49 6eba e582 f3bc 72d5 f03b 6a88 953c
000003d0: a996 1d3d ff38 54bc 76c4 adbc 5b9c cebc
000003e0: 593a 4f3b 623a 2abc c7fa ae3c 5fae 243a
000003f0: aab5 a2bc c4a8 8139 7f24 c8bb c54e e13c
-0.023905726 -0.0040959893 -0.007799869 -0.019586246 -0.017562604 -0.0012523769 0.015226164 0.063482344
-0.013839316 -0.012788272 -0.012999044 0.0028671657 -0.007608532 0.010730412 -0.04484127 -0.0081452085
-0.0071023596 0.0104117915 0.015507954 0.018941524 0.032522395 0.00044485112 0.001481097 0.013932824
0.01705644 -0.016935457 0.013467633 0.016781695 0.03403434 -0.0010575562 0.034486946 -0.011039748
0.004521424 -0.0005723114 -0.0016977601 -0.02823179 0.018680798 0.006301474 0.015871383 -0.0031967487
-0.00965083 0.023242818 -0.0105107855 0.017252767 0.010788635 -0.009488552 0.01029756 0.038957752
-0.004430246 -0.02087082 -0.021932082 0.0002947839 -0.027593978 0.008787981 0.0010938525 0.020970313
-0.021094125 -0.0005217912 -0.02903356 -0.013284303 -0.0029536719 0.011461462 -0.012236337 0.010782262
0.020005826 0.007494519 -0.0033629532 0.008379215 0.0044702757 0.021970173 0.0050787097 -0.03664835
0.009572274 -0.0041637523 -0.008993569 0.0032152177 -0.006842143 0.0070290244 0.051673815 0.0018620003
0.0044463184 -0.019560842 -0.012844422 0.009224825 -0.005959273 0.011475982 0.027141994 -0.010323563
-0.028250977 0.0019399411 -0.0014647417 0.014128718 -0.012027024 0.034774866 -0.006347043 -0.015079191
0.046710297 0.029429844 -0.03212857 -0.008809316 -0.020462185 0.006915807 0.00085342984 -0.0008356352
-0.01521226 0.0400754 0.004820513 -0.01698145 0.0012037489 0.02597879 -0.005166401 0.012801635
-0.0023182558 -0.019036822 -0.020816715 0.026935956 0.02537419 -0.028566498 -0.028311003 0.0011767163
-0.021828067 -0.0190847 0.03496279 -0.035554606 -0.04272309 0.0046839775 -0.0076318313 -0.012743804
0.020988647 -0.058547385 0.0060397023 0.008778241 -0.002218762 -0.013629843 0.013253951 -0.0028760876
-0.023802528 -0.01153701 0.0103176795 0.021253303 -0.028371325 0.019799428 0.03432567 -0.00030936688
0.0030096006 -0.026314871 -0.0018734141 -0.05626444 -0.0010641969 -0.010040741 -0.035411168 -0.0017450048
0.012639424 0.030861558 0.024243865 -0.013480827 -0.0082725985 -0.0033097074 -0.008350207 0.022418613
-0.002735116 -0.016572328 -0.0023050252 -0.015855085 -0.0034345181 -0.045908555 -0.034394864 0.005785085
0.010530833 0.0032195142 0.012897214 0.01469663 0.012608605 -0.04676085 -0.0074574803 -0.023452878
0.024599329 0.004026187 0.0029503969 -0.017375376 -0.009827835 0.014947037 -0.015306195 -0.0097900415
0.020452447 0.0098002115 -0.006992075 0.024713337 -0.020020135 0.030993655 0.0049218135 0.00885811
0.02058461 -0.02267609 0.005497383 -0.02937419 -0.019209003 -0.059161976 -0.04242908 0.009378446
-0.026848942 -0.0099552395 0.010520601 -0.02864019 0.0076037897 -0.009084098 -0.026903197 0.005350283
-0.017583322 -0.009623963 0.008928512 -0.008083245 0.009047365 0.01316618 0.01394284 0.008638281
0.018648598 -0.0067095 0.0063002566 0.018825259 0.011582287 0.0015423954 0.0014490661 0.010553773
-0.007742408 0.027450738 0.0011094093 -0.005310621 0.0027180742 0.0033708615 -0.026407596 0.02541828
0.0076199295 -0.03127228 0.0010252402 0.0021955476 0.023570525 0.049207162 0.014715397 0.017123666
-0.00090898835 -0.029725501 0.0073496634 0.018253524 0.03847376 -0.012953042 -0.021211844 -0.02522104
0.0031620471 -0.010389896 0.021359814 0.0006282087 -0.019862015 0.00024730538 -0.0061078663 0.02750338
