Markov-LLM-depth_modified/src/exps/markov/base/base_lr0.002_bs16x1_1nodes_seed=0/mlp-c_fc-id0/weights/mlp-c_fc-id0-iter10.npy (npy, 1152 bytes, 1 tensors)

array f4 [32, 8]
0	0xbcc3d5aa	-0.023905594
1	0xbb86359d	-0.0040957467
2	0xbbff969e	-0.0077999374
3	0xbca0735d	-0.01958626
4	0xbc8fde7f	-0.01756215
5	0xbaa42cdd	-0.0012525577
6	0x3c79766f	0.015225991
7	0x3d8202d3	0.06348195
8	0xbc62bea0	-0.013839394
9	0xbc518665	-0.01278839
10	0xbc54f989	-0.012998947
11	0x3b3be6b5	0.0028671448
12	0xbbf95353	-0.00760881
13	0x3c2fcf5d	0.010730592
14	0xbd37ab62	-0.044841178
15	0xbc057307	-0.0081451
16	0xbbe8ba21	-0.0071022664
17	0x3c2a97b5	0.010412146
18	0x3c7e148e	0.01550783
19	0x3c9b2b62	0.018941585
20	0x3d0536e4	0.03252305
21	0x39e912c7	0.00044455213
22	0x3ac217c6	0.001480811
23	0x3c6444a8	0.013932385
24	0x3c8bb9ad	0.01705631
25	0xbc8abc5a	-0.016935516
26	0x3c5ca762	0.013467642
27	0x3c8979cf	0.016781716
28	0x3d0b677f	0.03403425
29	0xba8a9a35	-0.0010574522
30	0x3d0d424d	0.034487057
31	0xbc34dfd8	-0.011039697
32	0x3b9428c2	0.0045214603
33	0xba160ee9	-0.00057242677
34	0xbade8524	-0.0016976935
35	0xbce7468a	-0.028231878
36	0x3c990832	0.018680666
37	0x3bce7d77	0.0063015777
38	0x3c8204d3	0.015871441
39	0xbb517f55	-0.0031966765
40	0xbc1e1f15	-0.009650965
41	0x3cbe679b	0.023242762
42	0xbc2c352a	-0.010510722
43	0x3c8d559e	0.01725274
44	0x3c30c22e	0.010788484
45	0xbc1b750d	-0.009488356
46	0x3c28b736	0.010297587
47	0x3d1f9244	0.03895785
48	0xbb912bf9	-0.004430291
49	0xbcaaf9c1	-0.020871045
50	0xbcb3aabd	-0.021932
51	0x399a80d3	0.0002946915
52	0xbce20d81	-0.02759433
53	0x3c0ffc68	0.008788206
54	0x3a8f6370	0.0010939669
55	0x3cabca88	0.020970598
56	0xbcaccd94	-0.021094121
57	0xba08c8ce	-0.00052179105
58	0xbcedd79a	-0.02903347
59	0xbc59a674	-0.013284314
60	0xbb41926b	-0.0029536735
61	0x3c3bc926	0.011461532
62	0xbc487b5a	-0.012236441
63	0x3c30a7d9	0.0107822055
64	0x3ca3e31d	0.020005757
65	0x3bf59436	0.0074944748
66	0xbb5c65fc	-0.0033630123
67	0x3c09493d	0.008379278
68	0x3b927b0b	0.0044702343
69	0x3cb3fb0d	0.021970296
70	0x3ba66b09	0.0050786776
71	0xbd161c83	-0.036648285
72	0x3c1cd470	0.009572133
73	0xbb886e47	-0.0041635367
74	0xbc13599d	-0.008993533
75	0x3b52b7b3	0.003215295
76	0xbbe031be	-0.006841867
77	0x3be652bc	0.0070289057
78	0x3d53a7c2	0.05167366
79	0x3af40873	0.0018618241
80	0x3b91b134	0.004446173
81	0xbca03e55	-0.019560972
82	0xbc52710a	-0.012844333
83	0x3c1723c5	0.009224837
84	0xbbc348b9	-0.005959597
85	0x3c3c0674	0.011476148
86	0x3cde593e	0.027142163
87	0xbc292376	-0.010323396
88	0xbce76ec7	-0.028251065
89	0x3afe453a	0.0019399293
90	0xbabffaa6	-0.0014646843
91	0x3c677c47	0.014128751
92	0xbc450d04	-0.012027029
93	0x3d0e701d	0.03477489
94	0xbbcffb5c	-0.006347103
95	0xbc770e80	-0.015079141
96	0x3d3f5340	0.046710253
97	0x3cf116ed	0.029429877
98	0xbd039931	-0.032128517
99	0xbc1054ee	-0.008809311
100	0xbca7a041	-0.020462157
101	0x3be29dc5	0.0069157802
102	0x3a5fb456	0.0008533647
103	0xba5b0cd3	-0.0008356098
104	0xbc793da7	-0.015212453
105	0x3d242609	0.040075336
106	0x3b9df583	0.004820527
107	0xbc8b1c9b	-0.016981414
108	0x3a9dc114	0.0012035691
109	0x3cd4d1db	0.025978973
110	0xbba94a77	-0.0051663476
111	0x3c51be9b	0.012801792
112	0xbb17ee4b	-0.0023182805
113	0xbc9bf336	-0.01903687
114	0xbcaa87d4	-0.020816721
115	0x3cdca89b	0.026935866
116	0x3ccfdd21	0.025373997
117	0xbcea0403	-0.028566366
118	0xbce7ec4e	-0.028310921
119	0x3a9a40b9	0.0011768556
120	0xbcb2d0e2	-0.021828119
121	0xbc9c57c5	-0.01908482
122	0x3d0f353c	0.034962878
123	0xbd11a1bf	-0.035554644
124	0xbd2efe95	-0.042723257
125	0x3b997cc9	0.004684065
126	0xbbfa1354	-0.0076316986
127	0xbc50cb2d	-0.012743753
128	0x3cabf07c	0.020988695
129	0xbd6fcf94	-0.05854757
130	0x3bc5e8e0	0.0060397238
131	0x3c0fd25b	0.00877818
132	0xbb116c8c	-0.0022189943
133	0xbc5f4f7e	-0.013629792
134	0x3c592832	0.013254212
135	0xbb3c7b2b	-0.0028759937
136	0xbcc2fd79	-0.023802506
137	0xbc3d059f	-0.011536985
138	0x3c290b76	0.010317674
139	0x3cae1b67	0.0212533
140	0xbce86afa	-0.028371323
141	0x3ca23222	0.019799296
142	0x3d0c991b	0.0343257
143	0xb9a22a00	-0.0003093034
144	0x3b453cd7	0.0030096078
145	0xbcd79248	-0.02631487
146	0xbaf58cb2	-0.0018733947
147	0xbd6675a3	-0.05626453
148	0xba8b7f28	-0.0010642754
149	0xbc2481df	-0.010040729
150	0xbd110b46	-0.03541114
151	0xbae4b61e	-0.0017449295
152	0x3c4f1590	0.012639418
153	0x3cfcd141	0.030861499
154	0x3cc69b1b	0.024243882
155	0xbc5cdedf	-0.013480871
156	0xbc0789f8	-0.00827264
157	0xbb58e683	-0.003309638
158	0xbc08cf3b	-0.008350189
159	0x3cb7a75c	0.02241867
160	0xbb333ec6	-0.0027350648
161	0xbc87c304	-0.016572483
162	0xbb170fa4	-0.0023050094
163	0xbc81e2c0	-0.015855193
164	0xbb611a99	-0.0034348129
165	0xbd3c0a83	-0.045908462
166	0xbd0ce152	-0.03439457
167	0x3bbd9178	0.0057851635
168	0x3c2c89b8	0.010530882
169	0x3b530200	0.0032197237
170	0x3c534e68	0.0128971115
171	0x3c70ca60	0.014696687
172	0x3c4e963d	0.012609062
173	0xbd3f8881	-0.04676104
174	0xbbf45ffb	-0.007457731
175	0xbcc020bd	-0.02345311
176	0x3cc98489	0.02459933
177	0x3b83ee6d	0.0040262253
178	0x3b415c00	0.00295043
179	0xbc8e56d4	-0.017375387
180	0xbc210492	-0.00982775
181	0x3c74e44c	0.014947008
182	0xbc7ac6ca	-0.015306184
183	0xbc2066f6	-0.009790173
184	0x3ca78bf2	0.020452473
185	0x3c2091f7	0.009800426
186	0xbbe51e4f	-0.0069921385
187	0x3cca73c8	0.024713412
188	0xbca40048	-0.020019665
189	0x3cfde603	0.030993467
190	0x3ba14529	0.0049215746
191	0x3c11206e	0.0088578295
192	0x3ca8a0e6	0.020584535
193	0xbcb9c3e3	-0.022676414
194	0x3bb42419	0.0054974672
195	0xbcf0a244	-0.02937425
196	0xbc9d5d7d	-0.019209618
197	0xbd7253a8	-0.059161812
198	0xbd2dc9ba	-0.04242871
199	0x3c19a9dc	0.009378877
200	0xbcdbf289	-0.026849048
201	0xbc231cd8	-0.009955607
202	0x3c2c5f35	0.010520746
203	0xbcea9efd	-0.028640265
204	0x3bf923bf	0.007603138
205	0xbc14d460	-0.009083837
206	0xbcdc635d	-0.026902849
207	0x3baf5506	0.0053507118
208	0xbc900ae6	-0.017583322
209	0xbc1dad7f	-0.009623884
210	0x3c1248ef	0.008928522
211	0xbc046f9d	-0.008083251
212	0x3c143bee	0.0090474915
213	0x3c57b715	0.013166209
214	0x3c64704a	0.013942787
215	0x3c0d86d3	0.008638102
216	0x3c98c520	0.018648684
217	0xbbdbda08	-0.006709341
218	0x3bce71f8	0.006300207
219	0x3c9a37ad	0.018825376
220	0x3c3dc563	0.011582705
221	0x3aca21fd	0.0015421506
222	0x3abde61b	0.0014488132
223	0x3c2ce8ce	0.010553552
224	0xbbfdb4c8	-0.007742498
225	0x3ce0e002	0.027450565
226	0x3a916b5f	0.0011094621
227	0xbbae051f	-0.005310669
228	0x3b321d57	0.0027178132
229	0x3b5cec23	0.0033710084
230	0xbcd8547a	-0.026407469
231	0x3cd03a85	0.02541853
232	0x3bf9b055	0.0076198974
233	0xbd0017bc	-0.031272635
234	0x3a8665a4	0.001025368
235	0x3b0fe228	0.0021954868
236	0x3cc115b0	0.023569912
237	0x3d498dcc	0.049207494
238	0x3c7119b6	0.014715603
239	0x3c8c47ca	0.017124075
240	0xba6e4450	-0.0009089159
241	0xbcf382cb	-0.029725453
242	0x3bf0d5e7	0.007349718
243	0x3c95886b	0.018253526
244	0x3d1d96d1	0.038473908
245	0xbc543945	-0.012953107
246	0xbcadc4d8	-0.021212026
247	0xbcce9c88	-0.025221124
248	0x3b4f3932	0.0031619784
249	0xbc2a3af0	-0.010390028
250	0x3caefabc	0.021359794
251	0x3a24b4d2	0.0006283048
252	0xbca2b5fb	-0.019862166
253	0x3981b0cb	0.00024736518
254	0xbbc82466	-0.0061078547
255	0x3ce14f35	0.02750359
