Markov-LLM-depth_modified/src/exps/markov/base/base_lr0.002_bs16x1_1nodes_seed=0/mlp-c_fc-id0/weights/mlp-c_fc-id0-iter40.npy (npy, 1152 bytes, 1 tensors)

array f4 [32, 8]
000000 33 d8 c3 bc b8 5f 86 bb 32 8f ff bb 06 6e a0 bc
       -0.023906803 -0.004100766 -0.0077990526 -0.019583713
000010 c6 f3 8f bc 32 d8 a3 ba d7 83 79 3c 9c 06 82 3d
       -0.017572295 -0.0012500344 0.015229187 0.06348917
000020 3c bb 62 bc 84 7c 51 bc 87 01 55 bc 4f dc 3b 3b
       -0.0138385855 -0.0127860345 -0.013000852 0.002866525
000030 19 1e f9 bb cf c1 2f 3c 6b ad 37 bd 2c 79 05 bc
       -0.007602465 0.01072736 -0.04484312 -0.008146565
000040 ca b1 e8 bb a7 77 2a 3c b4 1b 7e 3c a4 2f 9b 3c
       -0.007101272 0.010404504 0.015509535 0.018943615
000050 c9 25 05 3d 87 8b eb 39 e3 e0 c2 3a e9 66 64 3c
       0.032506738 0.0004492665 0.0014868047 0.013940551
000060 e3 c0 8b 3c 32 ba 8a bc 0a a7 5c 3c 6e 79 89 3c
       0.017059749 -0.016934488 0.01346756 0.016781535
000070 dd 67 0b 3d 5a e4 8a ba 3e 40 0d 3d dd e2 34 bc
       0.0340346 -0.0010596619 0.034485094 -0.011040417
000080 a4 21 94 3b ae 6a 15 ba 38 bc de ba 0c 41 e7 bc
       0.004520612 -0.00056997954 -0.001699335 -0.028229259
000090 09 0b 99 3c 3d 6b ce 3b 82 03 82 3c 1c 93 51 bb
       0.01868202 0.006299405 0.015870813 -0.0031978553
0000a0 aa 0f 1e bc 6a 69 be 3c 3f 3b 2c bc ab 58 8d 3c
       -0.009647289 0.023243625 -0.010512172 0.017254194
0000b0 11 c4 30 3c d1 86 1b bc 48 b9 28 3c a8 90 1f 3d
       0.010788933 -0.009492592 0.010298081 0.038956314
0000c0 fb 26 91 bb 5e f0 aa bc 29 ae b3 bc 9b 8c 9b 39
       -0.0044296957 -0.02086657 -0.021933632 0.00029668663
0000d0 f9 01 e2 bc 4f eb 0f 3c 8b 33 8f 3a 83 bf ab 3c
       -0.027588831 0.008784129 0.0010925395 0.020965343
0000e0 0c cd ac bc e9 c7 08 ba 6b dc ed bc 00 a3 59 bc
       -0.021093868 -0.0005217777 -0.029035768 -0.013283491
0000f0 1c a0 41 bb 72 c1 3b 3c 14 70 48 bc af ad 30 3c
       -0.0029544896 0.011459695 -0.012233753 0.010783597
000100 d5 e6 a3 3c 56 9c f5 3b a5 4a 5c bb ad 42 09 3c
       0.02000753 0.0074954433 -0.0033613828 0.008377713
000110 d0 7b 92 3b 35 f5 b3 3c d3 74 a6 3b f9 1d 16 bd
       0.004470326 0.02196751 0.0050798445 -0.036649678
000120 99 e9 1c 3c 3b 96 88 bb 36 5f 13 bc 9d bd 52 3b
       0.009577178 -0.0041682995 -0.008994868 0.0032156475
000130 c4 76 e0 bb 07 62 e6 3b 89 ab 53 3d d8 76 f4 3a
       -0.0068500955 0.0070307287 0.05167726 0.0018651141
000140 80 c3 91 3b 01 39 a0 bc b1 77 52 bc 0b 1c 17 3c
       0.0044483542 -0.019558432 -0.0128459195 0.009222995
000150 f8 09 c3 bb 74 fb 3b 3c 22 52 de 3c 1c 2f 29 bc
       -0.005952116 0.011473525 0.027138773 -0.010326173
000160 d5 68 e7 bc fc 49 fe 3a 7b 2e c0 ba 96 7c 67 3c
       -0.02824823 0.0019400711 -0.001466229 0.014128825
000170 ac 14 45 bc 8d 6f 0e 3d 53 ea cf bb 39 13 77 bc
       -0.012028854 0.034774352 -0.0063450723 -0.015080267
000180 ee 54 3f 3d 36 15 f1 3c a2 9a 03 bd 35 52 10 bc
       0.046711855 0.02942906 -0.03212989 -0.008808662
000190 21 a4 a7 bc 56 a2 e2 3b 4b 30 60 3a 2b 3b 5b ba
       -0.020464005 0.0069163246 0.0008552118 -0.0008363004
0001a0 0a 2a 79 bc 28 27 24 3d 25 f5 9d 3b b4 1e 8b bc
       -0.015207777 0.040076405 0.0048204833 -0.016982414
0001b0 71 01 9e 3a 3d ca d4 3c d7 4c a9 bb 85 b2 51 3c
       0.0012054873 0.025975341 -0.0051666307 0.01279891
0001c0 96 f0 17 bb de f1 9b bc bf 86 aa bc 59 ac dc 3c
       -0.0023184172 -0.01903623 -0.020816205 0.02693765
0001d0 48 e5 cf 3c 54 09 ea bc 88 ef e7 bc 25 ef 99 3a
       0.025377885 -0.028568901 -0.02831246 0.0011744244
0001e0 87 ce b2 bc aa 52 9c bc 37 33 0f 3d cb a0 11 bd
       -0.021826996 -0.019082386 0.03496095 -0.035553735
0001f0 dc fb 2e bd 4a 6f 99 3b 70 28 fa bb c9 cd 50 bc
       -0.04272066 0.004682456 -0.007634215 -0.0127443755
000200 d4 eb ab 3c 9d cb 6f bd 14 e8 c5 3b e8 d2 0f 3c
       0.020986475 -0.05854379 0.0060396288 0.008778311
000210 e1 01 11 bb 61 51 5f bc 0f 0f 59 3c a8 92 3c bb
       -0.0022126364 -0.013630242 0.013248219 -0.0028773937
000220 85 ff c2 bc af 07 3d bc 3c 0c 29 3c 5b 1a ae 3c
       -0.023803482 -0.011537476 0.010317858 0.021252802
000230 b7 68 e8 bc c1 38 a2 3c 16 98 0c 3d 44 fc a2 b9
       -0.028370244 0.019802453 0.034324728 -0.00031087
000240 68 36 45 3b f0 92 d7 bc ac 99 f5 ba 60 73 66 bd
       0.0030092243 -0.026315182 -0.0018737814 -0.056262374
000250 f0 55 8b ba 98 81 24 bc ae 0b 11 bd 3a e7 e4 ba
       -0.001063047 -0.010040663 -0.03541153 -0.001746393
000260 88 18 4f 3c b6 d3 fc 3c 05 9a c6 3c 44 d6 5c bc
       0.012640126 0.03086267 0.024243364 -0.013478819
000270 af 8e 07 bc 98 01 59 bb 0d ce 08 bc e3 a4 b7 3c
       -0.0082737645 -0.0033112522 -0.008349908 0.022417491
000280 cc 73 33 bb 29 bc 87 bc f1 09 17 bb cc e1 81 bc
       -0.0027382253 -0.016569214 -0.0023046697 -0.015854739
000290 a9 81 60 bb 0f 0c 3c bd 3b e9 0c bd f9 8c bd 3b
       -0.003425697 -0.045909937 -0.034402113 0.0057846275
0002a0 75 8e 2c 3c 2d b7 52 3b 98 54 53 3c 02 d0 70 3c
       0.010532011 0.0032152638 0.012898587 0.01469803
0002b0 e2 62 4e 3c 3e 85 3f bd e5 2f f4 bb 56 18 c0 bc
       0.012596818 -0.04675793 -0.0074519985 -0.023449104
0002c0 b8 85 c9 3c 2a e7 83 3b 8c 49 41 3b 5f 54 8e bc
       0.024599895 0.0040253596 0.00294933 -0.017374216
0002d0 46 0f 21 bc 18 e5 74 3c fa c7 7a bc d5 5a 20 bc
       -0.009830302 0.014947198 -0.015306467 -0.009787281
0002e0 43 8f a7 3c 73 7f 20 3c fa 17 e5 bb 57 75 ca 3c
       0.020454055 0.009796011 -0.0069913836 0.024714155
0002f0 eb 18 a4 bc 4e eb fd 3c c8 71 a1 3b 33 35 11 3c
       -0.020031413 0.030995991 0.004926894 0.008862781
000300 5c 9f a8 3c b4 b5 b9 bc c8 1e b4 3b 7f a7 f0 bc
       0.020583801 -0.02266965 0.0054968335 -0.029376743
000310 1c 3c 9d bc ac 55 72 bd b4 d2 2d bd 2e 89 19 3c
       -0.019193701 -0.059163734 -0.04243727 0.009371085
000320 38 f4 db bc 7e fb 22 bc 93 56 2c 3c af a3 ea bc
       -0.026849851 -0.009947656 0.010518688 -0.028642504
000330 99 af f9 3b a9 e3 14 bc b0 73 dc bc c0 13 af 3b
       0.00761981 -0.009087482 -0.026910633 0.0053429306
000340 ef 08 90 bc fd b4 1d bc ac 46 12 3c cd 69 04 bc
       -0.017582385 -0.0096256705 0.008927982 -0.0080818655
000350 ac 2b 14 3c 4c b1 57 3c 65 75 64 3c 79 97 0d 3c
       0.009043615 0.013164829 0.013944005 0.008642071
000360 f1 c3 98 3c 78 f2 db bb 07 76 ce 3b e4 34 9a 3c
       0.01864812 -0.006712254 0.006300691 0.018824048
000370 48 9f 3d 3c 92 b4 ca 3a f0 96 be 3a 90 f7 2c 3c
       0.01157362 0.0015465191 0.0014540832 0.01055707
000380 cc a3 fd bb 8c e7 e0 3c 85 48 91 3a 84 fa ad bb
       -0.0077404734 0.02745416 0.0011084235 -0.005309405
000390 a6 56 32 3b e0 c0 5c 3b 52 58 d8 bc 2b 30 d0 3c
       0.002721229 0.0033684298 -0.026409302 0.025413593
0003a0 9f 9d f9 3b 0e 10 00 bd 56 23 86 3a fc bd 0f 3b
       0.007617667 -0.03126531 0.001023392 0.0021933308
0003b0 46 36 c1 3c 6b 88 49 3d 05 08 71 3c 18 38 8c 3c
       0.02358545 0.049202364 0.014711385 0.017116591
0003c0 6d 7e 6e ba 63 84 f3 bc 5b c5 f0 3b 1f 8b 95 3c
       -0.00090978184 -0.029726213 0.0073477454 0.018254815
0003d0 ff 91 1d 3d 43 35 54 bc 1c bb ad bc 91 99 ce bc
       0.03846931 -0.012952152 -0.021207385 -0.02521971
0003e0 69 48 4f 3b aa 2e 2a bc 9a fc ae 3c 3a d2 23 3a
       0.0031628853 -0.010387102 0.021360684 0.0006249283
0003f0 15 ae a2 bc f1 4c 81 39 50 25 c8 bb 21 46 e1 3c
       -0.0198584 0.00024662123 -0.0061079636 0.02749926
