Markov-LLM-depth_modified/src/exps/markov/base/base_lr0.002_bs16x1_1nodes_seed=0/mlp-c_fc-id0/weights/mlp-c_fc-id0-iter1.npy (npy, 1152 bytes, 1 tensors)

array f4 [32, 8]
-0.023905253 -0.004094734 -0.007800146 -0.019586656 -0.017560152 -0.0012531052 0.015225302 0.063480444
-0.013839587 -0.012788868 -0.012998557 0.0028672102 -0.00761007 0.010731263 -0.04484077 -0.008144772
-0.0071023297 0.010413681 0.015507438 0.018941343 0.032526232 0.00044354258 0.0014795574 0.013930698
0.017055647 -0.016935743 0.013467645 0.01678176 0.03403411 -0.0010569997 0.034487475 -0.011039523
0.0045216284 -0.00057292025 -0.0016973687 -0.028232375 0.018680338 0.0063020163 0.015871597 -0.0031964327
-0.009651683 0.023242587 -0.010510442 0.01725247 0.010788308 -0.009487505 0.010297521 0.038958184
-0.0044304417 -0.02087195 -0.021931661 0.00029427747 -0.027595494 0.008789047 0.0010943031 0.020971684
-0.02109415 -0.00052177574 -0.029033016 -0.013284466 -0.0029535182 0.011461879 -0.012236987 0.010781918
0.0200054 0.0074942904 -0.0033633404 0.008379576 0.0044702175 0.021970855 0.0050784606 -0.036648013
0.009571198 -0.0041625677 -0.008993289 0.0032153067 -0.006840282 0.007028499 0.051672902 0.0018611612
0.0044456953 -0.019561496 -0.012844002 0.009225123 -0.00596108 0.011476709 0.02714287 -0.0103227915
-0.02825161 0.0019399106 -0.0014643833 0.014128761 -0.012026706 0.03477498 -0.006347503 -0.015078909
0.046709947 0.029430054 -0.03212824 -0.008809417 -0.020461814 0.0069156555 0.00085298985 -0.0008354714
-0.015213388 0.04007512 0.0048205326 -0.016981238 0.0012031386 0.025979714 -0.005166255 0.012802399
-0.0023182894 -0.019037018 -0.020816803 0.026935494 0.025373204 -0.028565835 -0.028310591 0.0011773607
-0.02182834 -0.019085325 0.034963265 -0.03555483 -0.042723827 0.0046844035 -0.007631166 -0.0127436025
0.02098911 -0.058548372 0.006039756 0.008778107 -0.0022202702 -0.013629665 0.013255449 -0.0028756787
-0.02380234 -0.011536886 0.010317653 0.021253383 -0.028371505 0.019798666 0.034325887 -0.00030898472
0.0030096662 -0.026314814 -0.001873304 -0.056264956 -0.0010645402 -0.010040735 -0.035411056 -0.0017446261
0.0126392925 0.030861264 0.024243975 -0.013481239 -0.008272485 -0.003309318 -0.00835022 0.022418907
-0.0027344902 -0.016573185 -0.0023050557 -0.015855355 -0.003436615 -0.045908116 -0.034393027 0.0057853186
0.010530735 0.0032206355 0.012896777 0.014696543 0.012611446 -0.046761706 -0.0074589094 -0.023453953
0.024599256 0.0040263906 0.0029506285 -0.01737558 -0.009827287 0.01494696 -0.015306132 -0.009790745
0.020452246 0.009801333 -0.006992323 0.024713371 -0.020017354 0.030992901 0.004920474 0.00885679
0.020584583 -0.022677813 0.0054976493 -0.029373921 -0.01921274 -0.05916136 -0.042426948 0.009380511
-0.026849024 -0.009957218 0.0105212135 -0.02864 0.007599883 -0.009083031 -0.02690124 0.0053523383
-0.017583454 -0.00962353 0.008928605 -0.008083478 0.009048215 0.013166468 0.013942537 0.008637306
0.018648854 -0.006708721 0.0063000885 0.018825704 0.011584551 0.0015412241 0.0014477113 0.010552789
-0.007742923 0.02744984 0.0011096733 -0.0053109247 0.002717061 0.0033715442 -0.026407056 0.025419544
0.007620222 -0.031274114 0.0010258103 0.0021957515 0.023566898 0.04920859 0.01471649 0.017125618
-0.0009087145 -0.029725267 0.0073500937 0.018253319 0.03847482 -0.0129533345 -0.02121297 -0.025221437
0.0031617542 -0.010390608 0.02135963 0.00062892033 -0.019862872 0.00024752534 -0.006107819 0.027504465
00000000: f3d4 c3bc 1e2d 86bb 5e98 ffbb 3274 a0bc
00000010: 4fda 8fbc 3c3f a4ba 8c73 793c 0902 823d
00000020: 6fbf 62bc 6688 51bc e6f7 54bc cee7 3b3b
00000030: e55d f9bb 2ed2 2f3c f5aa 37bd a671 05bc
00000040: a9ba e8bb 259e 2a3c e912 7e3c e02a 9b3c
00000050: 3a3a 053d 478b e839 b5ed c13a 953d 643c
00000060: 49b8 8b3c d4bc 8abc 66a7 5c3c e779 893c
00000070: 5a67 0b3d 068b 8aba bd42 0d3d 1edf 34bc
00000080: 2b2a 943b 0730 16ba 3e7a deba 9547 e7bc
00000090: 8207 993c 2581 ce3b 2705 823c 3e7b 51bb
000000a0: 1822 1ebc 3d67 be3c fd33 2cbc 0d55 8d3c
000000b0: 72c1 303c 7b71 1bbc efb6 283c 9e92 1f3d
000000c0: 3d2d 91bb a7fb aabc 07aa b3bc 4149 9a39
000000d0: f20f e2bc efff 0f3c b86e 8f3a cfcc ab3c
000000e0: a4cd acbc c7c7 08ba a6d6 edbc 17a7 59bc
000000f0: d08f 41bb 9bca 3b3c a57d 48bc a4a6 303c
00000100: 5de2 a33c aa92 f53b 7d6b 5cbb 7d4a 093c
00000110: e77a 923b 39fc b33c 3769 a63b 3a1c 16bd
00000120: 84d0 1c3c 2666 88bb 9758 13bc e5b7 523b
00000130: 7224 e0bb 534f e63b f7a6 533d 35f2 f33a
00000140: 32ad 913b 6e3f a0bc a66f 52bc f824 173c
00000150: 2a55 c3bb ce08 3c3c b95a de3c ed20 29bc
00000160: ec6f e7bc 9944 fe3a 8df0 bfba 527c 673c
00000170: a90b 45bc 3670 0e3d b7fe cfbb 870d 77bc
00000180: ee52 3f3d 4c17 f13c e798 03bd 5f55 10bc
00000190: 899f a7bc b99c e23b 2e9b 5f3a 8903 5bba
000001a0: 9341 79bc cf25 243d 8ff5 9d3b 3d1c 8bbc
000001b0: a2b2 9d3a 69d3 d43c b049 a9bb 27c1 513c
000001c0: 71ee 17bb 85f3 9bbc 0088 aabc d3a7 dc3c
000001d0: 77db cf3c e602 eabc 9deb e7bc ab51 9a3a
000001e0: 59d1 b2bc d458 9cbc a435 0f3d f1a1 11bd
000001f0: 2eff 2ebd a07f 993b dc0e fabb 8bca 50bc
00000200: 5bf1 ab3c 6bd0 6fbd 25e9 c53b 0dd2 0f3c
00000210: f481 11bb f54e 5fbc 622d 593c e275 3cbb
00000220: 20fd c2bc 3505 3dbc 600b 293c 931b ae3c
00000230: 5c6b e8bc d030 a23c 4d99 0c3d 3aff a1b9
00000240: d23d 453b 2a92 d7bc a789 f5ba 1576 66bd
00000250: 0b88 8bba e581 24bc 2f0b 11bd f0ab e4ba
00000260: 0915 4f3c c3d0 fc3c 4d9b c63c 6ae0 5cbc
00000270: 5189 07bc 25e1 58bb 5ccf 08bc dba7 b73c
00000280: 2235 33bb 7dc4 87bc 6b10 17bb 17e3 81bc
00000290: d538 61bb 260a 3cbd b4df 0cbd c592 bd3b
000002a0: 1b89 2c3c 4c11 533b 014d 533c c5c9 703c
000002b0: 3da0 4e3c 3489 3fbd de69 f4bb 8122 c0bc
000002c0: 6184 c93c d0ef 833b 555f 413b 3b57 8ebc
000002d0: a102 21bc 18e4 743c 92c6 7abc 5c69 20bc
000002e0: 788b a73c c595 203c db1f e5bb b273 ca3c
000002f0: 6ffb a3bc d3e4 fd3c ed3b a13b 121c 113c
00000300: 00a1 a83c d2c6 b9bc a025 b43b 94a1 f0bc
00000310: 0964 9dbc 2f53 72bd e1c7 2dbd b7b0 193c
00000320: 7cf2 dbbc 9923 23bc 2b61 2c3c 6f9e eabc
00000330: 7008 f93b fed0 14bc fd5f dcbc ab62 af3b
00000340: 2d0b 90bc 03ac 1dbc 4949 123c 9070 04bc
00000350: f73e 143c 2bb8 573c 3d6f 643c 7d83 0d3c
00000360: 7bc5 983c d5d4 dbbb f970 ce3b 5d38 9a3c
00000370: 21cd 3d3c e602 ca3a 21c1 bd3a 9be5 2c3c
00000380: 59b8 fdbb 7dde e03c 7572 913a 4407 aebb
00000390: b810 323b 20f5 5c3b 9c53 d8bc a63c d03c
000003a0: 0eb3 f93b 4919 00bd 7b74 863a 99e6 0f3b
000003b0: 5e0f c13c f28e 493d 6f1d 713c 064b 8c3c
000003c0: cc36 6eba 6782 f3bc 0ed9 f03b fc87 953c
000003d0: c697 1d3d 393a 54bc d3c6 adbc 309d cebc
000003e0: 6f35 4f3b 5e3d 2abc 64fa ae3c 21de 243a
000003f0: 76b7 a2bc 4ac6 8139 1924 c8bb 0b51 e13c
