Markov-LLM-depth_modified/src/exps/markov/base/base_lr0.002_bs16x1_1nodes_seed=0/mlp-c_proj-id0/weights/mlp-c_proj-id0-iter40.npy (npy, 1152 bytes, 1 tensors)

array f4 [8, 32]
0.007659391 -0.017177308 0.0017707775 -0.023515949 0.008293957 -0.02190174 0.005457414 0.0027197
-0.013867138 -0.028332623 -0.019286381 -0.025000868 -0.012789855 -0.034901757 -0.00046211702 -0.011848767
0.0034829995 0.007569563 0.004308752 -0.0052853078 0.012186012 9.363638e-05 -0.008331361 -0.013129194
-0.004489045 -0.0066143693 -0.0024246674 0.010465954 -0.010856514 -4.1975512e-05 0.017159069 -0.013908588
8.2600935e-05 -0.0077903946 0.009331662 -0.0048624035 -0.020085579 -0.006950731 -0.012102536 -0.005108459
-0.0064646006 0.014928449 0.007161929 -0.017565042 -0.0034471499 -0.0049922555 0.012507398 -0.020428983
-0.017203776 0.01245448 0.010962827 -0.020756869 -0.0008453614 -0.0038160048 -0.010812291 -0.013572
0.0022181727 -0.014647978 0.00043753957 -0.0058393767 -0.020225793 -0.012110235 -0.0066320943 -0.014075011
-3.944831e-05 0.00344075 0.0012251405 0.0007862759 0.013821919 0.013780077 0.017380927 0.025027491
-0.019044453 0.026857808 0.008771136 0.007578613 0.015313258 -0.006612815 -0.008725882 0.009039517
-0.012862762 0.00012480731 0.0039165393 0.0010511777 -0.01393541 -0.0030289413 0.009082292 -0.0018961426
-0.007747957 -0.0021476473 0.009976476 0.0071127266 0.007085936 -0.0068714814 0.028791992 -0.020556143
-0.016591586 -0.010437118 0.002487583 0.008326915 -0.02124721 -0.0077307993 -0.011519543 -0.005919133
0.01547411 0.010938475 0.010540196 -0.006315123 -0.005163417 0.010458223 -0.021579674 -0.00999174
-0.013619593 0.0019857807 -0.016013045 -0.015555904 -0.016100945 0.0034447259 -0.010096294 -0.0018326058
0.009627089 -0.001832563 -0.0043960544 0.020160709 -0.0075707496 -0.00961773 -0.0045548733 0.019666724
-0.02253997 -0.0033667658 -0.02557496 0.01061123 0.0007560626 0.00078259746 0.01539145 -0.009199478
0.0060231052 -0.012089226 0.011469066 -0.012085545 -0.008053627 0.0056851404 0.0028307703 0.0016166351
0.00866099 0.003114623 -0.0013479711 -0.0015877014 0.014957564 -0.017950995 -0.009373724 -0.02392377
0.035089456 0.02610774 -0.0076792557 -0.010961047 0.014424748 0.009665871 -0.011050151 0.007824829
0.0023033803 0.0020890855 -0.00063613633 0.01947843 0.009487468 0.031255696 0.020495474 0.014009056
0.023176696 0.0050139567 0.0039735986 -0.007527133 -0.00737507 0.019762982 0.014296828 -0.00027186293
-0.016057117 -0.027074782 -0.0038968474 0.009388907 -0.0019098339 0.00043679602 -0.0011674205 -0.0014146384
-0.013631906 -0.011703951 0.022177203 -0.0147392405 0.009207974 -0.007660469 0.00039844168 -0.008766304
0.015361573 -0.019299094 0.02509158 0.017058287 -0.002487117 -0.006991411 -0.006036551 -0.018187031
-0.01303954 0.011972794 -0.005626556 -0.016961081 -0.008828089 -0.009127063 -0.008035236 0.008401406
0.01650927 0.004228961 -0.0019892955 0.00043969214 0.024195746 0.0077254404 0.0125062475 0.0029733956
0.006517956 -0.010975727 0.008677808 0.00038958792 0.00405854 -0.04747837 -0.015824212 -0.021253202
-0.027269347 -0.021332162 -0.009952894 0.0026068012 -0.0022696475 0.0030597935 0.023198104 -0.0106252935
0.011486404 0.008293809 -0.002562738 0.006412317 0.011731494 0.010881294 0.003957116 -0.013053806
-0.022268409 0.01613004 0.008683524 0.0042815804 -0.033680875 0.010258729 -0.023087408 -0.0054030484
0.011164402 0.0008070969 -0.022166241 0.00985384 0.023232546 -0.0034221103 0.008037694 0.018424157
00000000: a1fb fa3b 6db7 8cbc 6f19 e83a 85a4 c0bc
00000010: 61e3 073c 476b b3bc 1bd4 b23b ff3c 323b
00000020: fe32 63bc d119 e8bc 79fe 9dbc 9fce ccbc
00000030: 8a8c 51bc 25f5 0ebd 4c48 f2b9 5521 42bc
00000040: 0943 643b 190a f83b 6e30 8d3b 6030 adbb
00000050: d7a7 473c a65e c438 4380 08bc d51b 57bc
00000060: d718 93bb 5abd d8bb 2be7 1ebb 6579 2b3c
00000070: 85df 31bc dd0e 30b8 2d91 8c3c d9e0 63bc
00000080: 0a3a ad38 9146 ffbb d4e3 183c cc54 9fbb
00000090: 838a a4bc f5c2 e3bb b749 46bc dc64 a7bb
000000a0: 00d5 d3bb 7496 743c 9dae ea3b 90e4 8fbc
000000b0: 94e9 61bb 1396 a3bb d4eb 4c3c af5a a7bc
000000c0: efee 8cbc e00d 4c3c 6e9d 333c 4f0a aabc
000000d0: 3e9b 5dba f015 7abb 0926 31bc 185d 5ebc
000000e0: c35e 113b 13fe 6fbc 9165 e539 3e58 bfbb
000000f0: 90b0 a5bc 026a 46bc 0a52 d9bb e09a 66bc
00000100: 4d75 25b8 357e 613b e594 a03a 151e 4e3a
00000110: 5575 623c d5c5 613c 7262 8e3c 7406 cd3c
00000120: 1d03 9cbc e804 dc3c d0b4 0f3c 0356 f83b
00000130: 76e4 7a3c 50b0 d8bb 00f7 0ebc 7b1a 143c
00000140: 56be 52bc b5de 0239 5056 803b acc7 893a
00000150: 5951 64bc 3481 46bb e5cd 143c fd87 f8ba
00000160: 93e2 fdbb 8bbf 0cbb 6074 233c e011 e93b
00000170: 2431 e83b 2a2a e1bb 2fdd eb3c 5b65 a8bc
00000180: 14eb 87bc 7200 2bbc b806 233b 9d6d 083c
00000190: a10e aebc a552 fdbb 77bc 3cbc 49f5 c1bb
000001a0: 1f87 7d3c 4a37 333c c9b0 2c3c 17ef cebb
000001b0: e231 a9bb f758 2b3c dbc7 b0bc 65b4 23bc
000001c0: b724 5fbc df23 023b ca2d 83bc 31de 7ebc
000001d0: 21e6 83bc e9c0 613b ed6a 25bc 0c34 f0ba
000001e0: f0ba 1d3c 9c32 f0ba c70c 90bb 1228 a53c
000001f0: 0d14 f8bb af93 1dbc 0c41 95bb 1c1c a13c
00000200: bea5 b8bc f5a4 5cbb 9482 d1bc b9da 2d3c
00000210: 8132 463a 3a27 4d3a 6c2c 7c3c 68b9 16bc
00000220: 785d c53b e411 46bc c0e8 3b3c 7302 46bc
00000230: 5cf3 03bc 6a4a ba3b 7284 393b 46e5 d33a
00000240: d3e6 0d3c b41e 4c3b 68ae b0ba 6b1a d0ba
00000250: 9210 753c f70d 93bc 4094 19bc c8fb c3bc
00000260: f6b9 0f3d e6df d53c 44a2 fbbb f795 33bc
00000270: c755 6c3c 9a5d 1e3c b10b 35bc b633 003c
00000280: 4ff4 163b 0ae9 083b 63c2 26ba 3a91 9f3c
00000290: 5371 1b3c f905 003d 20e6 a73c 3d86 653c
000002a0: 0edd bd3c 1e4c a43b f634 823b 2ba6 f6bb
000002b0: 92aa f1bb fae5 a13c 3e3d 6a3c d388 8eb9
000002c0: 378a 83bc efcb ddbc 4062 7fbb eed3 193c
000002d0: 6453 faba c501 e539 2204 99ba 636b b9ba
000002e0: 5c58 5fbc eec1 3fbc f7ac b53c db7c 71bc
000002f0: 0bdd 163c ac04 fbbb f0e5 d039 8ba0 0fbc
00000300: 1baf 7b3c 2219 9ebc db8c cd3c d2bd 8b3c
00000310: e6fe 22bb 3518 e5bb 43ce c5bb f8fc 94bc
00000320: cba3 55bc 8a29 443c f95e b8bb f7f1 8abc
00000330: b0a3 10bc ad89 15bc 39a6 03bc 0da6 093c
00000340: 733e 873c 1993 8a3b d75e 02bb 7b86 e639
00000350: 2836 c63c b125 fd3b 01e7 4c3c 4ddd 423b
00000360: 9494 d53b 89d3 33bc 5d2d 0e3c 9b41 cc39
00000370: 80fd 843b ae78 42bd c7a1 81bc 321b aebc
00000380: f763 dfbc c9c0 aebc 7711 23bc ded6 2a3b
00000390: 5ebe 14bb d186 483b f309 be3c b615 2ebc
000003a0: 7831 3c3c c2e2 073c 9cf3 27bb 6a1e d23b
000003b0: 7435 403c 7447 323c b2aa 813b a1df 55bc
000003c0: 3d6c b6bc 2523 843c 5745 0e3c 804c 8c3b
000003d0: f5f4 09bd 3a14 283c ce21 bdbc 0e0c b1bb
000003e0: e5ea 363c 5b93 533a fa95 b5bc 0072 213c
000003f0: 2e52 be3c 7c45 60bb 88b0 033c 42ee 963c
