Markov-LLM-depth_modified/src/exps/markov/base/base_lr0.002_bs16x1_1nodes_seed=0/mlp-c_proj-id0/weights/mlp-c_proj-id0-iter20.npy (npy, 1152 bytes, 1 tensors)

array f4 [8, 32]
000000 0b bd fa 3b e4 b6 8c bc f1 13 e8 3a a0 a0 c0 bc
       0.00765193 -0.017177053 0.0017706138 -0.023514092
000010 0d e8 07 3c 18 70 b3 bc 8c b7 b2 3b a0 1b 32 3b
       0.008295071 -0.021904036 0.0054540094 0.002717711
000020 ec 26 63 bc e0 1e e8 bc 3c 01 9e bc e3 d7 cc bc
       -0.01386426 -0.028335035 -0.019287698 -0.025005287
000030 6e 7a 51 bc fd f7 0e bd 3c 79 f0 b9 1c 36 42 bc
       -0.012785537 -0.03490447 -0.00045866694 -0.011853721
000040 e5 57 64 3b 94 c9 f7 3b 62 49 8d 3b 78 2f ad bb
       0.0034842428 0.007561872 0.0043117264 -0.0052851997
000050 a1 b3 47 3c 26 cb cd 38 d1 74 08 bc d7 20 57 bc
       0.012188823 9.813001e-05 -0.008328632 -0.013130388
000060 d7 ef 92 bb 2a c6 d8 bb a0 1d 1f bb 04 80 2b 3c
       -0.0044841575 -0.00661542 -0.0024279132 0.010467533
000070 e3 e1 31 bc 61 9c 37 b8 a3 99 8c 3c 2c ec 63 bc
       -0.010857078 -4.377624e-05 0.017163103 -0.013911288
000080 fb 67 af 38 b9 51 ff bb 89 de 18 3c c3 67 9f bb
       8.364018e-05 -0.0077917245 0.0093304 -0.0048646643
000090 19 8c a4 bc b7 b9 e3 bb 18 49 46 bc 3c 64 a7 bb
       -0.020086335 -0.006949629 -0.012102388 -0.0051083844
0000a0 76 d3 d3 bb d7 9b 74 3c 7b ac ea 3b ad e3 8f bc
       -0.006464417 0.014929733 0.0071616746 -0.017564619
0000b0 5c ba 61 bb ad 84 a3 bb 8c e0 4c 3c 22 59 a7 bc
       -0.0034443354 -0.0049901814 0.012504708 -0.020428244
0000c0 0b f6 8c bc b0 13 4c 3c 47 94 33 3c a4 06 aa bc
       -0.017207166 0.012455866 0.010960645 -0.02075512
0000d0 da e8 5d ba e8 1a 7a bb 71 25 31 bc f3 57 5e bc
       -0.00084651785 -0.003816301 -0.010812149 -0.013570773
0000e0 cc 4e 11 3b a4 04 70 bc 97 eb e4 39 20 63 bf bb
       0.002217221 -0.014649544 0.00043663077 -0.005840674
0000f0 f6 ae a5 bc 47 79 46 bc 8a 75 d9 bb 90 9b 66 bc
       -0.02022503 -0.012113876 -0.006636326 -0.014075175
000100 db 03 26 b8 23 82 61 3b 12 a8 a0 3a 4e 12 4e 3a
       -3.9581075e-05 0.0034409843 0.001225712 0.0007861004
000110 7d 74 62 3c dc be 61 3c 04 60 8e 3c 74 03 cd 3c
       0.013821718 0.013778415 0.017379768 0.02502606
000120 d8 04 9c bc c0 01 dc 3c a2 af 0f 3c 41 5d f8 3b
       -0.019045278 0.026856303 0.0087699015 0.007579476
000130 5d d5 7a 3c 59 ab d8 bb 41 fe 0e bc 0a 30 14 3c
       0.015309659 -0.006612223 -0.008727611 0.0090446565
000140 e1 bc 52 bc bd 41 04 39 7c 62 80 3b 49 fd 89 3a
       -0.012862415 0.0001261299 0.0039179903 0.0010527755
000150 a1 4e 64 bc 75 77 46 bb 4a cf 14 3c eb b3 f8 ba
       -0.013934762 -0.0030283604 0.009082625 -0.0018974518
000160 04 d8 fd bb 45 98 0c bb 0b 79 23 3c 04 0f e9 3b
       -0.0077466983 -0.0021453064 0.009977589 0.0071123857
000170 5b 33 e8 3b d0 2c e1 bb ff de eb 3c 54 61 a8 bc
       0.0070862 -0.006871797 0.028792856 -0.020554222
000180 cf 00 88 bc f9 f3 2a bc 0e 51 23 3b 72 77 08 3c
       -0.016601948 -0.010434144 0.0024920139 0.008329259
000190 bc 12 ae bc 02 4d fd bb 8e d5 3c bc c9 fe c1 bb
       -0.021249168 -0.0077301273 -0.011525525 -0.0059202653
0001a0 aa 91 7d 3c 13 20 33 3c 53 a6 2c 3c 40 ee ce bb
       0.015476624 0.01093294 0.010537702 -0.0063150227
0001b0 8b 47 a9 bb 99 51 2b 3c 39 b6 b0 bc 97 d8 23 bc
       -0.0051659993 0.010456466 -0.021571266 -0.0100003695
0001c0 3d 2f 5f bc 7e bf 01 3b e2 33 83 bc b6 e9 7e bc
       -0.013622102 0.0019797976 -0.01601595 -0.015558651
0001d0 7c e1 83 bc e9 34 62 3b d2 72 25 bc 1a 90 f0 ba
       -0.01609873 0.00345164 -0.010098176 -0.0018353492
0001e0 de b8 1d 3c 79 29 f0 ba 3e 22 90 bb 20 2b a5 3c
       0.009626595 -0.0018322907 -0.0043986132 0.020162165
0001f0 81 0c f8 bb 0a a3 1d bc 79 f7 94 bb bc 11 a1 3c
       -0.00756985 -0.009621391 -0.0045461026 0.019661777
000200 30 6f b8 bc ac 0a 5d bb 78 9f d1 bc fb c6 2d 3c
       -0.022513956 -0.0033728285 -0.025588736 0.010606523
000210 e8 7e 44 3a c9 05 4d 3a 43 8f 7c 3c b0 bb 16 bc
       0.0007495717 0.00078209914 0.015415016 -0.009200022
000220 38 29 c5 3b 68 c1 45 bc f4 21 3c 3c 3e ed 45 bc
       0.0060168765 -0.012070037 0.011482704 -0.012080489
000230 b1 df 03 bc 0b 1a ba 3b 4a 57 38 3b 9f b1 d6 3a
       -0.008048938 0.005679374 0.00281282 0.001637984
000240 bf 2b 0e 3c 02 0d 4e 3b 51 ab b1 ba ad 07 d0 ba
       0.008677422 0.0031440859 -0.0013555085 -0.0015871428
000250 d4 eb 74 3c 89 31 93 bc 4a 94 19 bc 59 d9 c3 bc
       0.014948804 -0.017967956 -0.009373734 -0.02390735
000260 eb b7 0f 3d a9 c9 d5 3c 99 80 fb bb f5 94 33 bc
       0.035087507 0.026097136 -0.007675242 -0.010960807
000270 7a 31 6c 3c f3 83 1e 3c 14 6d 35 bc a4 7e 00 3c
       0.014416093 0.009675014 -0.0110733695 0.0078426935
000280 8e b9 16 3b b2 21 09 3b 93 45 26 ba 8b 90 9f 3c
       0.0022998783 0.0020924625 -0.0006342765 0.019478103
000290 09 7b 1b 3c 96 04 00 3d fe e0 a7 3c 8f 91 65 3c
       0.009489783 0.031254373 0.020493027 0.014011755
0002a0 22 e2 bd 3c 2b 2f a4 3b 9b 28 82 3b 41 8d f6 bb
       0.023179118 0.0050105057 0.0039721257 -0.007524163
0002b0 95 b5 f1 bb 24 ee a1 3c 4b 41 6a 3c 1d 55 8f b9
       -0.0073763826 0.019766875 0.014297794 -0.000273385
0002c0 1d 93 83 bc 28 d3 dd bc 9b 33 7f bb 97 cf 19 3c
       -0.01606136 -0.027078226 -0.0038940671 0.009387872
0002d0 1d 86 fa ba 25 ff e3 39 76 d7 98 ba b0 95 b9 ba
       -0.0019113455 0.0004348691 -0.0011660892 -0.001415899
0002e0 bc 69 5f bc 7a b5 3f bc 9b af b5 3c d6 80 71 bc
       -0.013636049 -0.011700982 0.022178462 -0.01474019
0002f0 0b e6 16 3c 3b e9 fa bb ab a7 d2 39 14 ae 0f bc
       0.00921012 -0.007657198 0.00040179244 -0.008769531
000300 90 92 7b 3c b5 1c 9e bc 6f 95 cd 3c 6f c6 8b 3c
       0.015354767 -0.019300798 0.02509567 0.017062394
000310 58 b8 22 bb 03 13 e5 bb 56 0e c6 bb 7a fd 94 bc
       -0.0024829116 -0.0069907918 -0.0060441894 -0.018187273
000320 0b 9c 55 bc ee 20 44 3c 49 72 b8 bb 1b f8 8a bc
       -0.013037692 0.011970742 -0.005628858 -0.016964009
000330 77 ab 10 bc 4c 85 15 bc 3b 95 03 bc 8b 88 09 3c
       -0.008829943 -0.009126019 -0.008031185 0.008394371
000340 e7 35 87 3c 1d 54 8a 3b 0f 49 02 bb 60 bf e5 39
       0.016505195 0.004221453 -0.0019879972 0.0004382087
000350 76 39 c6 3c da 53 fd 3b bb e0 4c 3c 17 6d 42 3b
       0.024197321 0.007730943 0.012504752 0.0029667073
000360 22 8a d5 3b 91 c9 33 bc 5e 2d 0e 3c 25 d6 cb 39
       0.006516711 -0.01097335 0.008677809 0.00038878727
000370 83 00 85 3b bc 7b 42 bd d5 94 81 bc 2f 2a ae bc
       0.004058899 -0.047481284 -0.015818039 -0.02126035
000380 c1 61 df bc a2 bc ae bc 93 ff 22 bc a5 ca 2a 3b
       -0.027268292 -0.021330182 -0.009948629 0.0026060727
000390 7c a1 14 bb 1d c0 48 3b ea 03 be 3c 13 0b 2e bc
       -0.002267926 0.0030632087 0.023195226 -0.0106227575
0003a0 d6 25 3c 3c 3a cc 07 3c 30 3f 28 bb c5 0a d2 3b
       0.01148363 0.0082884375 -0.0025672428 0.0064099752
0003b0 c7 2a 40 3c 60 52 32 3c a5 d8 81 3b 8d f5 55 bc
       0.011728949 0.010883898 0.0039625936 -0.013059032
0003c0 a3 74 b6 bc 76 13 84 3c ad 56 0e 3c 1e 56 8c 3b
       -0.022272414 0.016122561 0.008687657 0.004282727
0003d0 a2 f0 09 bd 4b 1b 28 3c 8c 24 bd bc 40 33 b1 bb
       -0.03367675 0.010260413 -0.023088716 -0.005407721
0003e0 8d f6 36 3c 3e ef 54 3a 43 95 b5 bc c0 72 21 3c
       0.011167181 0.0008122808 -0.0221659 0.009854019
0003f0 5d 5c be 3c de 4b 60 bb a1 c2 03 3c a6 ea 96 3c
       0.023237402 -0.0034224908 0.008042009 0.018422436
