Markov-LLM-depth_modified/src/exps/markov/base/base_lr0.002_bs16x1_1nodes_seed=0/mlp-c_proj-id0/weights/mlp-c_proj-id0-iter30.npy (npy, 1152 bytes, 1 tensors)

array f4 [8, 32]
00000000: 82eb fa3b 4fb7 8cbc d014 e83a 8ba3 c0bc
00000010: 9fe4 073c ac6c b3bc 38cd b23b dd33 323b
00000020: b52f 63bc 0e1b e8bc 21ff 9dbc 20d1 ccbc
00000030: 4587 51bc eef5 0ebd 00d8 f1b9 7826 42bc
00000040: d249 643b 64f9 f73b 9137 8d3b d12f adbb
00000050: f1aa 473c 1ec3 c638 e47c 08bc d21c 57bc
00000060: 500d 93bb 21c0 d8bb 00f6 1ebb 367b 2b3c
00000070: 45e0 31bc 3fe6 31b8 4193 8c3c 8fe3 63bc
00000080: 50b1 ad38 ea49 ffbb 1ee2 183c 4c5a 9fbb
00000090: 1f8b a4bc 65c0 e3bb 6f49 46bc 1e65 a7bb
000000a0: 48d4 d3bb 2398 743c 4eae ea3b 57e4 8fbc
000000b0: e2da 61bb b491 a3bb 99e8 4c3c 525a a7bc
000000c0: e1f0 8cbc af0f 4c3c 5c9a 333c 4a09 aabc
000000d0: 62b2 5dba 8c16 7abb db25 31bc 575b 5ebc
000000e0: 645a 113b 6900 70bc bd39 e539 2e5b bfbb
000000f0: 33b0 a5bc b66e 46bc a45c d9bb 0a9b 66bc
00000100: 25e6 25b8 577f 613b 099c a03a 941d 4e3a
00000110: 4775 623c c9c3 613c 9761 8e3c 9305 cd3c
00000120: 9603 9cbc e903 dc3c 2eb3 0f3c ce57 f83b
00000130: fbdf 7a3c d4ae d8bb e6f8 0ebc 6920 143c
00000140: 03be 52bc 8b2a 0339 455a 803b e5d6 893a
00000150: 6850 64bc 5a7d 46bb 48ce 143c 1797 f8ba
00000160: 5bdf fdbb 52b3 0cbb bd75 233c 0d11 e93b
00000170: df31 e83b fa2a e1bb e6dd eb3c 5264 a8bc
00000180: a0f0 87bc ebfc 2abc a21a 233b 0970 083c
00000190: e20f aebc c950 fdbb c8c2 3cbc 7df7 c1bb
000001a0: ce89 7d3c 3031 333c 1eae 2c3c f7ed cebb
000001b0: 1038 a9bb 1b57 2b3c 27c3 b0bc c1bd 23bc
000001c0: 8a27 5fbc 780b 023b 9b2f 83bc 55e1 7ebc
000001d0: fde4 83bc b6de 613b 326d 25bc 414a f0ba
000001e0: 0eba 1d3c 9330 f0ba 4012 90bb e128 a53c
000001f0: e511 f8bb 9b97 1dbc ab2d 95bb 7a19 a13c
00000200: e697 b8bc a1c2 5cbb fd8a d1bc a3d5 2d3c
00000210: dca1 453a 6a17 4d3a bd47 7c3c 6dbb 16bc
00000220: cd50 c53b 26fb 45bc 3df9 3b3c 46fd 45bc
00000230: 63ec 03bc cc38 ba3b c633 393b ed9f d43a
00000240: fcfa 0d3c 7da7 4c3b 1f05 b1ba a519 d0ba
00000250: 6d06 753c 0a17 93bc 3694 19bc b0f1 c3bc
00000260: 8cb9 0f3d 90d8 d53c 2a9c fbbb 0095 33bc
00000270: 7f4a 6c3c 7166 1e3c c226 35bc 3548 003c
00000280: 51e4 163b d6f9 083b 3a98 26ba 1791 9f3c
00000290: a074 1b3c 9905 003d 7ce4 a73c cd89 653c
000002a0: 72de bd3c 2b43 a43b d530 823b 1e9f f6bb
000002b0: a0ae f1bb 89e8 a13c 973e 6a3c afc6 8eb9
000002c0: ea8c 83bc 43ce ddbc 3952 7fbb b5d2 193c
000002d0: c860 faba 65b3 e439 b0f7 98ba 3d7c b9ba
000002e0: 685d 5fbc a9bd 3fbc e4ad b53c 1b7e 71bc
000002f0: f2df 163c 05fc fabb 0776 d139 a5a4 0fbc
00000300: 31a8 7b3c 1f1a 9ebc 668f cd3c 2fc0 8b3c
00000310: 9fe8 22bb 6616 e5bb 16e0 c5bb dbfc 94bc
00000320: 07a2 55bc 0427 443c d564 b8bb 90f3 8abc
00000330: 7ba6 10bc a787 15bc d8a1 03bc 709e 093c
00000340: dd3b 873c 9981 8a3b a255 02bb fb55 e639
00000350: 0f37 c63c 5d31 fd3b 31e5 4c3c 24bc 423b
00000360: 2991 d53b dccf 33bc 082e 0e3c 461a cc39
00000370: 2aff 843b 5e79 42bd 319e 81bc 511f aebc
00000380: 1d63 dfbc 8bbf aebc f00b 23bc 8fd3 2a3b
00000390: cbb3 14bb c197 483b 1b08 be3c 3f12 2ebc
000003a0: e22d 3c3c 13dc 073c 3d0a 28bb f618 d23b
000003b0: d831 403c 274b 323c fbb7 813b bfe5 55bc
000003c0: d06e b6bc 851e 843c 0b4b 0e3c 5f4f 8c3b
000003d0: b1f3 09bd ee15 283c a022 bdbc 6118 b1bb
000003e0: 15ee 363c 2704 543a 8795 b5bc 0b72 213c
000003f0: 4955 be3c 1845 60bb 05b6 033c 26ed 963c
0.0076574693 -0.017177252 0.0017706398 -0.023515483 0.008294254 -0.021902405 0.005456593 0.0027191557
-0.013866355 -0.028333213 -0.019286694 -0.025002062 -0.012788598 -0.034902506 -0.00046128035 -0.011849992
0.003483404 0.0075675715 0.0043096025 -0.005285241 0.012186752 9.477719e-05 -0.0083305575 -0.01312943
-0.004487671 -0.0066147004 -0.0024255514 0.0104663875 -0.010856693 -4.2414522e-05 0.01716006 -0.013909235
8.28231e-05 -0.0077907937 0.009331254 -0.004863059 -0.02008587 -0.0069504254 -0.012102469 -0.0051084897
-0.006464515 0.01492885 0.007161892 -0.017564936 -0.003446274 -0.0049917344 0.0125066275 -0.02042881
-0.017204704 0.012454911 0.010962095 -0.020756382 -0.0008457062 -0.0038160412 -0.010812248 -0.013571582
0.002217912 -0.014648535 0.00043721302 -0.005839727 -0.02022562 -0.0121113565 -0.006633358 -0.01407505
-3.9553404e-05 0.0034408176 0.0012253533 0.0007862684 0.013821906 0.013779589 0.017380519 0.025027072
-0.019044679 0.026857333 0.008770747 0.0075788265 0.01531219 -0.006612638 -0.008726334 0.00904093
-0.012862685 0.00012508982 0.003917011 0.0010516314 -0.013935186 -0.0030287118 0.009082384 -0.0018965927
-0.0077475733 -0.0021469188 0.009976801 0.0071126283 0.007086023 -0.0068715783 0.028792333 -0.020555649
-0.016594231 -0.010436277 0.00248877 0.0083274925 -0.021247808 -0.0077305776 -0.011521049 -0.0059193955
0.01547475 0.01093702 0.01053956 -0.0063149887 -0.005164154 0.010457779 -0.02157743 -0.009993971
-0.013620267 0.0019843262 -0.016013911 -0.015556653 -0.016100401 0.0034465021 -0.010096835 -0.0018332676
0.009626878 -0.0018325023 -0.004396707 0.020161094 -0.0075704926 -0.009618665 -0.004552563 0.019665468
-0.022533368 -0.0033685344 -0.02557897 0.010610017 0.00075390725 0.00078236184 0.015397963 -0.009199959
0.006021595 -0.012083804 0.011472997 -0.012084311 -0.008051964 0.0056830402 0.002825962 0.0016221978
0.008665796 0.003122776 -0.0013505555 -0.0015876783 0.014955145 -0.017955322 -0.009373715 -0.023918957
0.03508906 0.026104242 -0.0076785283 -0.010960817 0.014422058 0.009667979 -0.011056604 0.0078297155
0.002302427 0.0020900867 -0.0006355081 0.019478364 0.009488255 0.03125534 0.020494692 0.014009905
0.02317736 0.00501289 0.0039731064 -0.0075262925 -0.0073755533 0.019764202 0.014297149 -0.0002723238
-0.016058404 -0.027075892 -0.003895892 0.009388615 -0.0019102329 0.00043621208 -0.0011670496 -0.0014151406
-0.01363311 -0.011702933 0.022177644 -0.014739539 0.009208666 -0.0076594376 0.00039951524 -0.008767282
0.015359924 -0.019299565 0.025092792 0.017059414 -0.0024857891 -0.0069911955 -0.006038676 -0.018186977
-0.013039119 0.011972193 -0.0056272545 -0.016961843 -0.008828755 -0.00912658 -0.008034192 0.008399591
0.016508037 0.004226875 -0.0019887467 0.0004393308 0.024196176 0.007726832 0.012505815 0.0029714191
0.0065175486 -0.0109748505 0.008677967 0.00038929487 0.0040587382 -0.047479026 -0.015822502 -0.021255167
-0.02726894 -0.02133157 -0.009951577 0.002606604 -0.0022690173 0.003060803 0.023197224 -0.010624467
0.011485549 0.008292216 -0.0025640868 0.006411667 0.011730634 0.0108821755 0.0039586998 -0.013055264
-0.022269636 0.016127834 0.008684884 0.0042819227 -0.033679668 0.010259135 -0.0230878 -0.0054045175
0.011165162 0.0008087777 -0.022166027 0.00985385 0.023234027 -0.003422087 0.008039002 0.018423628
