Markov-LLM-depth_modified/src/exps/markov/base/base_lr0.002_bs16x1_1nodes_seed=0/mlp-c_proj-id0/weights/mlp-c_proj-id0-iter1.npy (npy, 1152 bytes, 1 tensors)

array f4 [8, 32]
00000000: dfaa fa3b afb6 8cbc f615 e83a 7c9f c0bc
00000010: 43e9 073c 5971 b3bc d8ae b23b 8512 323b
00000020: 9823 63bc 6920 e8bc 1102 9ebc 53da ccbc
00000030: 0576 51bc bdf8 0ebd d6ee efb9 2b3c 42bc
00000040: 465c 643b 85b7 f73b 8e4f 8d3b a32f adbb
00000050: d8b6 473c 4f85 d038 0172 08bc 8922 57bc
00000060: 73e5 92bb 24c8 d8bb 422c 1fbb c781 2b3c
00000070: 70e2 31bc 91de 39b8 319c 8c3c a1ef 63bc
00000080: 6527 b038 4354 ffbb 7add 183c 8c6c 9fbb
00000090: 568c a4bc 4ab7 e3bb 1749 46bc 9563 a7bb
000000a0: 83d3 d3bb f19c 743c 75ab ea3b 6ce3 8fbc
000000b0: 3bb0 61bb 8b7f a3bb bedd 4c3c a058 a7bc
000000c0: f5f7 8cbc f714 4c3c 8a92 333c aa05 aabc
000000d0: 75fa 5dba 071d 7abb 4f25 31bc 0957 5ebc
000000e0: c24a 113b af05 70bc a6d7 e439 1166 bfbb
000000f0: 6dae a5bc c17c 46bc e47d d9bb ba9b 66bc
00000100: 86f4 25b8 f482 613b 54ab a03a b30c 4e3a
00000110: 1f74 623c 2bbd 613c 845f 8e3c b202 cd3c
00000120: 4f05 9cbc 0601 dc3c 68ae 0f3c 115f f83b
00000130: ccd1 7a3c 3aaa d8bb 3100 0fbc a835 143c
00000140: 72bc 52bc 63aa 0439 3565 803b 800b 8a3a
00000150: 004e 64bc 8975 46bb accf 143c 16bd f8ba
00000160: 34d5 fdbb 5d8f 0cbb 1f7a 233c 560e e93b
00000170: e433 e83b b32d e1bb 48df eb3c 3660 a8bc
00000180: 0907 88bc bbf0 2abc 0f65 233b 417a 083c
00000190: b513 aebc d54b fdbb ccdc 3cbc b201 c2bb
000001a0: b994 7d3c 9519 333c 4ba3 2c3c 13ef cebb
000001b0: 9c4c a9bb 854f 2b3c 66b1 b0bc e4e2 23bc
000001c0: 3032 5fbc 05a1 013b 5135 83bc b7ec 7ebc
000001d0: 19e0 83bc cf55 623b b674 25bc 18ab f0ba
000001e0: bfb8 1d3c f426 f0ba 9328 90bb f92b a53c
000001f0: 730a f8bb 7da7 1dbc 42e3 94bb c00e a13c
00000200: 605f b8bc de24 5dbb 93a6 d1bc a7c1 2d3c
00000210: 9c2d 443a c902 4d3a 1da9 7c3c bfba 16bc
00000220: 6c19 c53b 8fac 45bc 5630 3c3c f8e6 45bc
00000230: 8edc 03bc 4512 ba3b 2204 383b d37c d73a
00000240: bf3c 0e3c 478f 4e3b 73d9 b1ba 68fe cfba
00000250: 09e2 743c c63b 93bc 7494 19bc 1ed1 c3bc
00000260: 2bb7 0f3d 42c5 d53c 9273 fbbb 9595 33bc
00000270: 2629 6c3c 3390 1e3c 7b86 35bc 7f92 003c
00000280: 5ea9 163b 662f 093b 4c2d 26ba 5190 9f3c
00000290: dd7c 1b3c 3804 003d dfdf a73c 0f94 653c
000002a0: 7fe3 bd3c 8f28 a43b 2626 823b 0e87 f6bb
000002b0: 13b7 f1bb e9ef a13c 3f42 6a3c 098d 8fb9
000002c0: 3395 83bc c5d4 ddbc 132b 7fbb 72ce 193c
000002d0: c593 faba 8ac5 e339 dbcb 98ba d69a b9ba
000002e0: fb6d 5fbc 3ab3 3fbc 09b0 b53c ae81 71bc
000002f0: f4e7 163c 5be3 fabb 1e09 d339 51b1 0fbc
00000300: 458a 7b3c 951d 9ebc 7197 cd3c a1c8 8b3c
00000310: d5a9 22bb ef11 e5bb 591e c6bb defd 94bc
00000320: b299 55bc e31e 443c 9b76 b8bb c4f9 8abc
00000330: afac 10bc 2785 15bc 6f90 03bc 4780 093c
00000340: fb33 873c 2644 8a3b 6047 02bb 0784 e539
00000350: 533a c63c c160 fd3b 33df 4c3c 3c53 423b
00000360: 1288 d53b 1ec8 33bc 972c 0e3c e3c6 cb39
00000370: 6b00 853b af7c 42bd 8b91 81bc 062e aebc
00000380: 7d61 dfbc a5bb aebc 7cfb 22bc 61c7 2a3b
00000390: f49c 14bb 31ce 483b 7f02 be3c d908 2ebc
000003a0: 3a23 3c3c cfc6 073c 1c51 28bb cc05 d23b
000003b0: ac28 403c 8354 323c 34e4 813b 60fb 55bc
000003c0: a176 b6bc b00f 843c 135a 0e3c 4c58 8c3b
000003d0: 97ef 09bd 791d 283c 3d25 bdbc e23b b1bb
000003e0: 85f9 363c 6f37 553a 5d95 b5bc 1d73 213c
000003f0: ba5e be3c 3650 60bb e4c6 033c c8e9 963c
0.007649764 -0.017176954 0.001770674 -0.023513548 0.00829536 -0.021904634 0.005452972 0.0027171683
-0.013863467 -0.028335767 -0.019288095 -0.025006449 -0.012784486 -0.034905184 -0.0004576358 -0.0118551655
0.0034845038 0.007559719 0.004312462 -0.0052852198 0.012189589 9.9430436e-05 -0.008327962 -0.013130792
-0.004482919 -0.0066156555 -0.0024287854 0.010467953 -0.01085721 -4.431472e-05 0.017164322 -0.013912112
8.399672e-05 -0.007792027 0.009330148 -0.0048652347 -0.020086449 -0.00694934 -0.012102387 -0.0051083067
-0.006464423 0.014929996 0.0071615526 -0.017564498 -0.0034437317 -0.0049895695 0.012504039 -0.020428002
-0.017208079 0.01245617 0.010960231 -0.020754654 -0.0008467802 -0.0038164274 -0.010812118 -0.0135705555
0.0022169803 -0.014649793 0.0004364822 -0.0058410247 -0.020224774 -0.012114705 -0.006637322 -0.014075214
-3.9566796e-05 0.003441033 0.0012258091 0.00078601687 0.013821631 0.013778011 0.01737953 0.0250257
-0.0190455 0.026855957 0.008769609 0.007579692 0.015308809 -0.0066120895 -0.008728073 0.009045996
-0.012862312 0.00012651975 0.003918315 0.0010531992 -0.013934612 -0.0030282459 0.009082716 -0.001897725
-0.007746363 -0.0021447756 0.009977846 0.0071123047 0.007086264 -0.006871903 0.028792992 -0.02055369
-0.016604917 -0.010433371 0.0024932062 0.008329929 -0.021249631 -0.007729987 -0.011527251 -0.0059206123
0.015477353 0.010931392 0.010536979 -0.006315121 -0.0051666033 0.010455971 -0.021568965 -0.010002825
-0.0136228055 0.0019779813 -0.016016634 -0.015559367 -0.016098069 0.003453601 -0.010098627 -0.0018361537
0.009626566 -0.0018322156 -0.004399368 0.02016257 -0.007569605 -0.009622452 -0.004543693 0.019660354
-0.022506416 -0.0033743898 -0.025592124 0.010605252 0.0007483603 0.00078205444 0.015421179 -0.009199797
0.0060149934 -0.012065067 0.011486134 -0.012078993 -0.00804819 0.0056784474 0.0028078635 0.0016440399
0.008681475 0.0031518505 -0.0013568833 -0.0015868666 0.014946469 -0.017972838 -0.009373773 -0.023903426
0.035086792 0.026095036 -0.007673689 -0.010960956 0.014414107 0.009677934 -0.011079426 0.007847427
0.0022989134 0.0020932793 -0.0006339147 0.019477995 0.009490219 0.031254023 0.020492492 0.014012351
0.023179768 0.005009718 0.003971833 -0.007523424 -0.0073765605 0.019767718 0.014298021 -0.00027380165
-0.016062355 -0.027078995 -0.0038935586 0.009387599 -0.0019117525 0.00043443992 -0.0011657433 -0.0014160525
-0.013637061 -0.011700446 0.022178667 -0.014740391 0.009210575 -0.0076564974 0.0004025185 -0.008770303
0.01535279 -0.019301215 0.025096627 0.01706344 -0.0024820466 -0.0069906632 -0.006046098 -0.01818746
-0.013037132 0.011970255 -0.0056293732 -0.0169648 -0.0088302335 -0.009125984 -0.008030041 0.0083924
0.016504278 0.0042195497 -0.0019878969 0.00043776652 0.024197733 0.007732481 0.012504387 0.0029651662
0.006516465 -0.010973005 0.008677623 0.0003886736 0.0040588877 -0.04748219 -0.01581647 -0.02126218
-0.027268166 -0.02132971 -0.009947654 0.002605878 -0.002267656 0.0030640478 0.02319455 -0.010622227
0.011483008 0.008287146 -0.002568311 0.0064093824 0.011728447 0.010884407 0.0039639715 -0.013060421
-0.022273364 0.016120762 0.008688468 0.0042829867 -0.033675756 0.010260933 -0.023089046 -0.00540875
0.0111678885 0.00081335654 -0.022165949 0.009854105 0.023238529 -0.0034227497 0.008043025 0.018422022
