Markov-LLM-depth_modified/src/exps/markov/base/base_lr0.002_bs16x1_1nodes_seed=0/mlp-c_proj-id0/weights/mlp-c_proj-id0-iter10.npy (npy, 1152 bytes, 1 tensors)

array f4 [8, 32]
00000000: 43b9 fa3b d6b6 8cbc 7b15 e83a 61a0 c0bc
00000010: 4de8 073c 4e70 b3bc 90b5 b23b ee19 323b
00000020: 4a26 63bc 3a1f e8bc 7001 9ebc 5ed8 ccbc
00000030: b479 51bc 21f8 0ebd 8359 f0b9 7537 42bc
00000040: 5458 643b c2c5 f73b 814a 8d3b 982f adbb
00000050: 4cb4 473c 4760 ce38 5c74 08bc 4e21 57bc
00000060: f1ed 92bb 5fc6 d8bb 6d20 1fbb 5a80 2b3c
00000070: f1e1 31bc 001c 38b8 379a 8c3c f6ec 63bc
00000080: 7d94 af38 1652 ffbb 73de 183c 8e68 9fbb
00000090: 158c a4bc 40b9 e3bb 2949 46bc f463 a7bb
000000a0: 92d3 d3bb f49b 743c 28ac ea3b 9fe3 8fbc
000000b0: 1db9 61bb 8b83 a3bb 19e0 4c3c 0859 a7bc
000000c0: 6cf6 8cbc d413 4c3c 2594 333c 7606 aabc
000000d0: 5feb 5dba 7c1b 7abb 6f25 31bc eb57 5ebc
000000e0: 014e 113b a304 70bc 65eb e439 b463 bfbb
000000f0: d4ae a5bc c579 46bc c176 d9bb a19b 66bc
00000100: 5eee 25b8 3682 613b fda7 a03a c010 4e3a
00000110: 5e74 623c 92be 613c fc5f 8e3c 5303 cd3c
00000120: ec04 9cbc ac01 dc3c 7faf 0f3c ac5d f83b
00000130: cdd4 7a3c 38ab d8bb a9fe 0ebc 1731 143c
00000140: c0bc 52bc 0c5e 0439 c162 803b 9bff 893a
00000150: 994e 64bc 7977 46bb 5bcf 143c 9eb4 f8ba
00000160: a5d7 fdbb 2997 0cbb 3979 233c e70e e93b
00000170: 5a33 e83b ef2c e1bb fbde eb3c 1a61 a8bc
00000180: 2102 88bc 65f3 2abc f754 233b 0e78 083c
00000190: e312 aebc e34c fdbb 1cd7 3cbc 7bff c1bb
000001a0: 5392 7d3c c21e 333c b0a5 2c3c afee cebb
000001b0: 6448 a9bb 2751 2b3c 45b5 b0bc bada 23bc
000001c0: d42f 5fbc beb8 013b 1f34 83bc 49ea 7ebc
000001d0: 2fe1 83bc d43b 623b 2473 25bc 1496 f0ba
000001e0: f1b8 1d3c fe28 f0ba 9b23 90bb 4c2b a53c
000001f0: 250c f8bb 00a4 1dbc 6af3 94bb 1a11 a13c
00000200: cf6b b8bc eb0e 5dbb a4a0 d1bc dac5 2d3c
00000210: 2578 443a 4107 4d3a 1694 7c3c 07bb 16bc
00000220: 9d25 c53b b6bd 45bc 6524 3c3c ceeb 45bc
00000230: b1df 03bc 1a1a ba3b e246 383b e6db d63a
00000240: 8a2e 0e3c 5b25 4e3b dbad b1ba 5704 d0ba
00000250: 02ea 743c b833 93bc 5694 19bc 04d8 c3bc
00000260: bab7 0f3d 46c9 d53c 017d fbbb 5095 33bc
00000270: 6030 6c3c e286 1e3c c071 35bc 7282 003c
00000280: 8ab6 163b d123 093b be43 26ba 7c90 9f3c
00000290: 277b 1b3c 8504 003d dee0 a73c df91 653c
000002a0: 62e2 bd3c 452e a43b 6428 823b 368c f6bb
000002b0: 7cb5 f1bb 5bee a13c 6941 6a3c 495e 8fb9
000002c0: 6993 83bc 59d3 ddbc 2033 7fbb 64cf 193c
000002d0: b488 faba 5bf7 e339 64d5 98ba da94 b9ba
000002e0: 686a 5fbc 5bb5 3fbc 9daf b53c ef80 71bc
000002f0: 42e6 163c 8ce8 fabb ceb2 d239 8cae 0fbc
00000300: af90 7b3c df1c 9ebc c295 cd3c d9c6 8b3c
00000310: 8fb6 22bb eb12 e5bb 5611 c6bb a3fd 94bc
00000320: 7d9b 55bc 9320 443c f872 b8bb 75f8 8abc
00000330: 7cab 10bc 8985 15bc 3794 03bc cf86 093c
00000340: 9c35 873c 1951 8a3b c149 02bb a7b2 e539
00000350: a339 c63c ac56 fd3b 79e0 4c3c e368 423b
00000360: fb89 d53b 96c9 33bc fe2c 0e3c 77d6 cb39
00000370: 4100 853b f97b 42bd 3794 81bc e92a aebc
00000380: c961 dfbc 7fbc aebc 11ff 22bc 02ca 2a3b
00000390: 89a1 14bb 4cc2 483b bc03 be3c d70a 2ebc
000003a0: 8225 3c3c 6fcb 073c bf41 28bb dd09 d23b
000003b0: af2a 403c 8552 323c 7fda 813b 9df6 55bc
000003c0: e974 b6bc e112 843c f756 0e3c 6a56 8c3b
000003d0: 7af0 09bd bf1b 283c a524 bdbc 3d34 b1bb
000003e0: 15f7 363c edf5 543a 6095 b5bc e072 213c
000003f0: af5c be3c 5f4d 60bb 31c3 033c 87ea 963c
0.0076514794 -0.017177027 0.0017706597 -0.023513975 0.008295131 -0.021904137 0.005453773 0.00271761
-0.013864109 -0.028335202 -0.019287795 -0.025005516 -0.012785364 -0.034904603 -0.0004584306 -0.011854042
0.0034842687 0.0075614164 0.00431186 -0.0052852146 0.012188982 9.8407785e-05 -0.0083285235 -0.013130499
-0.004483931 -0.0066154446 -0.0024280802 0.010467613 -0.010857091 -4.3895096e-05 0.01716338 -0.013911476
8.3723084e-05 -0.007791768 0.00933038 -0.004864759 -0.020086328 -0.0069495738 -0.012102404 -0.005108351
-0.00646443 0.01492976 0.007161636 -0.017564593 -0.0034442612 -0.0049900464 0.012504601 -0.020428196
-0.017207347 0.012455899 0.010960613 -0.020755034 -0.0008465554 -0.0038163355 -0.0108121475 -0.013570766
0.0022171738 -0.014649543 0.0004366293 -0.005840743 -0.020224966 -0.012113993 -0.006636471 -0.014075191
-3.9561062e-05 0.0034409887 0.0012257096 0.00078607723 0.013821689 0.013778346 0.017379753 0.025026
-0.019045316 0.026856266 0.008769869 0.007579526 0.015309525 -0.0066122077 -0.008727708 0.009044907
-0.012862384 0.00012623536 0.0039180224 0.0010528447 -0.013934755 -0.0030283614 0.0090826405 -0.0018974727
-0.007746654 -0.0021452403 0.009977632 0.007112372 0.0070861997 -0.0068718116 0.028792849 -0.020554114
-0.016602578 -0.010434006 0.002492247 0.0083294045 -0.02124924 -0.007730113 -0.011525895 -0.005920348
0.015476781 0.010932626 0.01053755 -0.0063150744 -0.0051661003 0.01045636 -0.021570811 -0.010000879
-0.013622243 0.0019793953 -0.016016064 -0.015558788 -0.016098587 0.0034520524 -0.010098252 -0.0018355274
0.009626613 -0.0018322763 -0.0043987758 0.020162247 -0.007569807 -0.00962162 -0.004545619 0.019661475
-0.022512345 -0.0033730816 -0.025589295 0.0106062535 0.00074947096 0.00078212103 0.015416166 -0.009199864
0.0060164467 -0.012069156 0.0114832865 -0.012080146 -0.008048938 0.005679381 0.0028118421 0.0016392439
0.008678088 0.003145537 -0.0013555841 -0.0015870434 0.01494837 -0.017968997 -0.009373745 -0.023906715
0.035087325 0.026096951 -0.0076748137 -0.010960892 0.01441583 0.009675713 -0.011074483 0.007843601
0.0022996985 0.002092589 -0.0006342492 0.019478075 0.009489811 0.03125431 0.020492967 0.014011829
0.023179237 0.0050103986 0.0039721 -0.0075240387 -0.007376371 0.019766977 0.014297822 -0.00027345333
-0.016061502 -0.027078317 -0.0038940385 0.009387825 -0.0019114227 0.00043481108 -0.0011660275 -0.0014158741
-0.013636209 -0.011700953 0.022178466 -0.014740213 0.009210171 -0.0076571163 0.0004018754 -0.008769643
0.0153543195 -0.019300876 0.025095824 0.017062591 -0.0024828052 -0.0069907806 -0.006044547 -0.01818735
-0.01303756 0.011970657 -0.0056289397 -0.016964177 -0.008829948 -0.009126076 -0.008030943 0.008393957
0.016505055 0.0042210934 -0.0019880387 0.0004381139 0.024197405 0.0077312794 0.01250469 0.0029664568
0.0065166927 -0.010973355 0.008677719 0.00038878966 0.004058868 -0.04748151 -0.015817745 -0.021260696
-0.027268307 -0.021330116 -0.009948508 0.0026060347 -0.002267929 0.0030633388 0.02319514 -0.010622702
0.011483552 0.008288248 -0.0025673953 0.006409867 0.011728927 0.010883932 0.0039628143 -0.0130592855
-0.022272544 0.016122283 0.008687726 0.0042827623 -0.033676602 0.010260521 -0.023088763 -0.0054078386
0.011167307 0.0008123804 -0.022165954 0.0098540485 0.023237554 -0.0034225804 0.008042143 0.018422378
