Markov-LLM-depth/src/None/mlp-c_proj-id0/weights/mlp-c_proj-id0-iter1.npy (npy, 1152 bytes, 1 tensors)

array f4 [8, 32]
000000 4a 0f c9 3b 97 a0 46 3c 4c 45 90 bc 2a 27 aa 3c
       0.006135856 0.012123249 -0.017611168 0.020770628
000010 70 3d a5 ba 8f 43 80 3c b9 a5 86 bc 40 9c fe 3a
       -0.0012606811 0.015657214 -0.016436445 0.0019425228
000020 27 f6 7d 3c 6f e8 89 3c 39 86 e7 bc 85 1e c4 bb
       0.015500582 0.016834466 -0.028262245 -0.0059850835
000030 d6 05 83 bc 84 26 35 3b 41 af 1b bc 55 30 82 bb
       -0.015993994 0.0027641365 -0.009502233 -0.003973047
000040 80 a3 d0 bb 58 f0 ec bb 4f a2 01 ba 77 c2 47 3b
       -0.006367147 -0.0072307996 -0.00049451453 0.00304809
000050 61 c7 16 3c 20 f7 e6 bc 4f 89 cb bc 50 4e 12 bc
       0.009202809 -0.02819401 -0.024845747 -0.008929804
000060 8d 57 58 bc 4e e3 33 bc ca 0e 05 3c 48 45 d2 3c
       -0.0132044675 -0.010979487 0.008121202 0.025667801
000070 87 34 f0 bb 89 7b 49 3c 33 68 1d bc 60 1e 4a 3b
       -0.0073304805 0.0122975195 -0.009607363 0.0030840859
000080 68 0c ec 3c 47 72 95 bc c0 a8 97 3b a8 ab 21 bc
       0.02881451 -0.018242968 0.004628271 -0.009867586
000090 eb 82 80 3c c0 a6 12 bc 4f ad 94 3c b4 25 9e bc
       0.015687427 -0.008950889 0.018149046 -0.019305088
0000a0 52 cd 46 3a 3f 13 ad bc ca 26 48 bb 9a 60 26 bb
       0.00075836957 -0.021127341 -0.0030540698 -0.002538717
0000b0 2c 2d d0 3c 71 02 02 bc d2 08 d4 ba 51 52 92 bc
       0.025412165 -0.007935152 -0.0016176945 -0.017861517
0000c0 d6 5c 26 3c c0 ae 6d bc 32 f3 38 3c 86 15 6e bc
       0.01015397 -0.014506996 0.011288451 -0.014531499
0000d0 6c a3 0b 3d 9e cc aa bb fa 7d cd 3c d9 7b 3f 3b
       0.034091398 -0.0052123806 0.025084484 0.0029218106
0000e0 42 f3 9c bb b2 5b e7 3b 6d d2 8d 3b 2b f8 ad 3a
       -0.004789741 0.0070604915 0.004328063 0.0013272812
0000f0 19 4c c6 bc 54 6a f3 3b 28 f0 14 bd b9 96 29 bc
       -0.024206208 0.007428447 -0.036361843 -0.0103508765
000100 5e fc 00 3c 29 9e 6d bc 1b fa 07 3c 8f 6b d8 bc
       0.007872669 -0.01450304 0.008299376 -0.026418475
000110 84 9c f7 3b c3 c9 0b bc 1e 62 08 bb e7 44 be 3b
       0.0075565 -0.00853199 -0.0020810436 0.0058065536
000120 b8 86 92 3c f3 ad b8 ba 2f 1e 86 bb ea fe 27 ba
       0.017886505 -0.0014089927 -0.0040929536 -0.00064085296
000130 f1 58 5d bc 04 da 28 3b 54 7a 4b 3c c8 5d bc bb
       -0.013509975 0.0025764713 0.012419302 -0.0057484843
000140 78 fe 04 bb f7 46 14 3c 65 cb d8 3b 65 2a bb 3a
       -0.0020293277 0.009050122 0.0066160434 0.0014279602
000150 0c f9 50 3b 18 fc 86 3a 8f 68 70 bb c4 ef 68 3b
       0.0031886725 0.0010298518 -0.0036683416 0.0035543302
000160 bf 40 56 bb 6b dc 7c bb e0 69 d1 bb b0 50 40 bc
       -0.00326924 -0.0038583528 -0.006390795 -0.011737987
000170 5e 04 2c bc 11 27 4d 3c c9 31 db bb 2a 41 52 bc
       -0.010499088 0.012521521 -0.0066892845 -0.012832919
000180 6c e8 74 3c 1b 84 8d 3c f5 3e 80 bc 9e 9c 37 3c
       0.014947992 0.017274907 -0.01565502 0.011206774
000190 78 61 97 bc 90 24 a3 bc be 7b 14 3b a7 20 b2 bb
       -0.018479094 -0.019914895 0.0022656764 -0.0054360214
0001a0 14 a6 9f bc 96 32 e3 bc d2 44 39 bc 59 83 52 3c
       -0.019488372 -0.027734082 -0.011307912 0.0128486985
0001b0 df 49 ed 3c d7 bd 86 bb 9d e0 42 bc dd 9d a0 bc
       0.028965889 -0.004111986 -0.011894372 -0.019606525
0001c0 79 72 a7 3c a3 06 2c 3c 5c e0 8f 3b 73 5f 9b bc
       0.020440327 0.010499629 0.0043907594 -0.018966412
0001d0 fd 8f 19 bc 4a 74 9a 3c 62 15 09 bc ac 74 7d 3b
       -0.009372708 0.01885428 -0.0083669145 0.0038674278
0001e0 b3 16 40 bd 3c 27 08 bc a1 80 58 3c c7 e0 73 bb
       -0.046896648 -0.008310135 0.013214261 -0.0037212835
0001f0 12 70 9b 3b e1 27 fa bb ad d9 80 3c 27 c1 87 3c
       0.0047435844 -0.0076341485 0.015728796 0.016571594
000200 1f 63 76 bb 53 80 1c bc ce ab 7a bc b8 6f 18 bb
       -0.0037595702 -0.009552079 -0.0152997505 -0.002325995
000210 ad 79 c5 ba fc a8 a1 bb b7 69 20 3c 4a e2 65 bc
       -0.001506617 -0.0049334746 0.009790829 -0.014031002
000220 08 98 46 3b 9b eb 36 3c 8a 45 87 bb c3 99 2f bb
       0.003030302 0.011164571 -0.0041281627 -0.002679453
000230 74 1e 00 bd 4e 75 fa 38 19 84 2b 3c 46 a5 a5 bc
       -0.031279042 0.00011942779 0.010468506 -0.02022041
000240 b5 8d 7b ba ae bd 31 bc e4 c8 e7 3a bb 67 11 bd
       -0.0009596006 -0.010848446 0.0017683771 -0.035499316
000250 8d 5f e1 3b 7a b8 e9 bb 17 54 7c 3c dc cc 7d 3c
       0.0068778456 -0.007132587 0.015400908 0.015490737
000260 f0 3e 38 3c 15 ec ed bb c3 62 5e bc ae 1e a1 3c
       0.011245474 -0.007260809 -0.013573351 0.01966795
000270 77 77 db bc 6d 3f 02 ba 18 3e a4 3c b6 f8 37 bc
       -0.026790364 -0.00049685576 0.02004914 -0.011228731
000280 19 24 73 3c 1c 3f 49 3b 18 b3 45 bb 60 00 ed 3b
       0.014840149 0.0030707782 -0.0030166563 0.0072327107
000290 87 e2 05 3b 81 34 58 bc 55 6a 4b 3c f9 d1 91 3b
       0.002042921 -0.013196112 0.012415488 0.0044500795
0002a0 45 9a 87 3a 5b 8c d2 bc 57 e2 03 bc e7 5d 87 3b
       0.0010345659 -0.025701692 -0.008049569 0.004131067
0002b0 82 05 a0 3c 33 9d b0 3c d9 55 4e bc e5 ca 0f bd
       0.019533876 0.021559333 -0.01259371 -0.035105605
0002c0 11 2b 21 bc cb 4c 6b ba 50 ee cb bb 86 ea b0 3b
       -0.009836928 -0.00089759816 -0.0062234774 0.005399051
0002d0 c4 61 a9 bc 22 14 82 bc f6 e6 82 bb 29 4e 89 3a
       -0.020676501 -0.01587874 -0.003994818 0.0010475564
0002e0 e2 a8 f5 3c 73 51 a3 3c 4f b4 22 bc 2e b5 90 3c
       0.029987756 0.019936299 -0.009930684 0.017664518
0002f0 49 58 67 bc a7 ca 66 bc 33 ec 08 3c e9 e5 dc 3b
       -0.01412017 -0.014086402 0.0083570955 0.0067412746
000300 89 89 ea 3c 99 9d 09 3b 30 fe bd 3b 34 c4 e9 bb
       0.028630035 0.0020998477 0.005798124 -0.007133985
000310 d8 32 a1 3b 74 6d 27 3c 40 f1 17 bc 21 08 77 3b
       0.004919391 0.010218967 -0.009273827 0.0037694054
000320 e8 67 c7 bb 6c 19 8c 3c 3b 1a 5c 3b c8 5a 2c bc
       -0.0060853846 0.017101966 0.003358497 -0.010519691
000330 c5 a5 a1 3b dd e2 4e 3c 16 a0 22 b8 88 b2 6f 3c
       0.0049330913 0.012627331 -3.87729e-05 0.0146299675
000340 3c fc 8e 3b 09 74 ce bc 33 7a 8b 3c 9a 01 1b 3c
       0.004363565 -0.025201814 0.017026043 0.009460831
000350 d3 92 00 3c f5 91 08 3c c4 00 0a bb 36 66 da bc
       0.007847506 0.00833558 -0.0021057585 -0.026660066
000360 dd bf e4 3b 64 0d 8e 3b dd 2e 16 3d 98 e2 5f bc
       0.0069808797 0.0043350924 0.036665786 -0.013664864
000370 18 5a 0a 3c 4c cc cb bc 19 4f b3 3a 88 28 1a 3c
       0.008444332 -0.02487769 0.0013680189 0.009409077
000380 86 9f 8c bc 68 ab 4a bc 04 d0 b4 bc 5f d5 dc 3a
       -0.01716591 -0.012369968 -0.022071846 0.0016848258
000390 42 7b 04 3c db 95 05 bc 7b 97 a9 3c 95 7d 7c bc
       0.008086028 -0.008153404 0.020702114 -0.0154108
0003a0 32 28 ab 3b 1a 49 6d bc 62 5f f4 bb 76 5b 14 3c
       0.0052232975 -0.014482761 -0.0074576596 0.009055009
0003b0 88 52 03 3c aa 53 d3 bb 80 ca 1e 3c 76 0e 88 bc
       0.008015282 -0.0064491825 0.009691834 -0.016608458
0003c0 44 5a fa bb ac 9c 01 bd ac 51 cf ba 3d c6 ae bc
       -0.007640155 -0.031643555 -0.0015817187 -0.021334762
0003d0 b7 55 22 bc aa 9a a0 bc 54 7b a9 3b e8 eb 8a 3c
       -0.009908131 -0.019605 0.0051721726 0.016958192
0003e0 91 99 b4 3a 3a 59 15 bc 50 bd 5b bc 8b 08 5f 3b
       0.0013778677 -0.009115512 -0.013411835 0.0034032192
0003f0 cf 08 46 3c 33 66 3c bc ce 1a 70 3a 48 51 85 ba
       0.012087061 -0.011498976 0.00091592676 -0.0010171318
