Markov-LLM-depth/model.pt (torch, 172467 bytes, 23 tensors)

transformer.wte.weight f4 [2, 32]
00000000: 77e9 d6bd e244 7bbd d407 b33c b6ee 46bd
00000010: ce62 f63c 9404 a03d 3ac7 bd3d 5e1b 103c
00000020: e538 7a3d d949 05bd f174 4f3e 3ed2 c3bd
00000030: 716b 563d 6bb8 cc3c 3282 90bd f388 103e
00000040: 6167 0ebe ef24 79bb 63e5 b7be 2c8e 12be
00000050: f833 183d 3ce9 49bc 169e f7bc ee4b 3e3c
00000060: ce00 513b 03d6 8d3d f15d 8fbc 2472 503c
00000070: f3f3 00bd 2ecb ed3b 6cf2 243d bfcf 673e
00000080: 676b 63bd 7fb1 2c3d 6b15 e93c 7f9c 63bd
00000090: d77f 193d 61d6 5c3d 8627 763d f24a a33d
000000a0: cbc2 993d d800 83bc ca97 b0bd dbb0 233e
000000b0: 2cb8 b13d f8c4 933d dbfd 5ebd f5f3 833c
000000c0: b97b b4bd 0783 2dbd a29b 023e 4130 cdbd
000000d0: dd66 113d fdfa b43c 15a7 1cbd d0f6 333d
000000e0: 6a42 f63c 6f88 fa3b 4120 6bbb d170 423b
000000f0: 0c50 8d3c a85a 473d 84d2 db3c 7307 91be
-0.10493749 -0.06134499 0.021854319 -0.048567496 0.03007641 0.07813373 0.09266515 0.008795587
0.061089415 -0.03254113 0.20259453 -0.09561585 0.052348558 0.024990281 -0.07056083 0.14114742
-0.13906623 -0.00380164 -0.35917196 -0.14312047 0.037158936 -0.012323674 -0.030226748 0.011614783
0.0031891349 0.06925585 -0.01750085 0.012722526 -0.031482648 0.007256887 0.040270254 0.22637843
-0.05552235 0.04216146 0.028452596 -0.05556917 0.037475433 0.053915385 0.060096286 0.07973279
0.07507857 -0.015991613 -0.086227015 0.15985434 0.08677706 0.07215303 -0.054441314 0.016107539
-0.08812661 -0.042361286 0.12754682 -0.10018969 0.03549849 0.022092337 -0.03824528 0.04393655
0.030060966 0.0076456587 -0.003587738 0.0029669295 0.017250083 0.04867044 0.02683378 -0.28325996

transformer.wpe.weight f4 [128, 32]
00000000: ce6e f8bd 9f4a 243e 2c89 9abe 4a3a bf3e
00000010: eb49 473d 46d7 1ebc ad04 f33d c8ae 913c
00000020: cd8d 14be 6c5c 503e 5955 233e eca2 103e
00000030: 18ab 503f cb1d 8a3d c589 31be f94a 763e
00000040: f5a6 6bbd e3db 04be 42f5 05be 9dd5 963d
00000050: 8c93 643d 6f3f 81bd 2eec 88bf bf67 c03d
00000060: fe4c 853d e989 a3bd 80b5 fa3c afff cdbd
00000070: 83ca e5be ff7e 3a3e b71e 8cbe 075e 87be
00000080: d0ec 96be f271 7bbe 124e 423e daaf eebd
00000090: f3fb d0bd f759 6d3d c2e6 fd3d 6d41 dbbd
000000a0: d85a 413b f001 a93e a07e a93d 2dfb 3f3e
000000b0: 3a67 3d3f 320a 573e c60e 1cbe 512b 8e3e
000000c0: b113 9fbd 60a0 9abe a8d2 d0bd ac56 6bbe
000000d0: 4763 3d3d 8ed0 c63d 8b01 2ebf db62 36bd
000000e0: 54da 0a3e d687 573a f69b 22bb 77c0 db3c
000000f0: 379c 83be d5b8 953e 1497 ccbd 1d26 07be
00000100: fdc8 58be a54b 82be c8e9 7e3d 29dc efbc
00000110: caba 2a3d 01b0 313d afdd 783d 49d1 15be
00000120: e006 083b 2619 863e 7188 d53d 74cf b7bd
00000130: 7e11 673e 5c61 183d 4738 0b3e 4450 793e
00000140: efc4 37b9 96e8 d9bd 6d8e 63be 6a63 31bd
00000150: 45bd 163c 296c a53d c99f 29be 19c3 99bd
00000160: 1b0e 893d 1d21 c63c 73a9 ae3b d3cb 963d
00000170: 7e82 38be 0849 793d 932a 1abc e2fb 7dbc
00000180: 6fd2 b0be 5fda fc3d 16e6 813e d8b7 9abe
00000190: aa9b 61bd 5f5c b13d 66a4 6f3e db37 30be
000001a0: c77c b33c be62 6e3e 777a 083e 0217 5e3d
000001b0: 9f22 e83d 8087 bc3d d09b dc3d 2163 943e
000001c0: b800 9ebd 03f0 88bd fd8b f0bd 2a86 50be
000001d0: c3a2 903e 9c61 f93d 5398 10be e898 9ebd
000001e0: 7c36 61bc 5f69 e03d fc23 8f3d fcf5 98bd
000001f0: 0e66 173d da9e 36be 304c 85bd 89fa d6bd
00000200: 4e43 c3be e015 d1bd 2cd1 963d 82a6 e1bd
00000210: e3e4 8cbd 50c8 9f3e f59c a33e 7b0d 39be
00000220: c236 c1bd a385 193e d78d 643d e81f 67bd
00000230: 98d0 153e 0b66 8a3e 83d4 2f3e f0ff 793e
00000240: 8725 68bd 7e0d 933d 4e32 6cbe c175 0fbe
00000250: 06dd b2bc 9170 573d b5af 833d 43a9 80be
00000260: da26 3bbd 770b 8f3d 1ee2 153e 341e e03d
00000270: e962 45bc 6d99 0dbe ae6d 46bd 7cd7 0fbd
00000280: 768f 033e 59fe b0be 9c04 563e 9430 30be
00000290: 5066 a8be 99f1 253d 6d63 83bd ea04 10bd
000002a0: c7fb 313e ae15 05be a93b 6c3e 20c9 d7be
000002b0: dad9 15be 2525 86bd a057 43bb 422f 9d3e
000002c0: a700 053e ba8f acbe 99ed 81be 4210 073d
000002d0: a2ae a2be c3de 0cbd c95f c5be 1621 823e
000002e0: 0434 883e ccf9 443e 949f 34be f3a9 0a3f
000002f0: cad2 803e 10a6 7b3e e89c 99bc fc7d b23e
00000300: ce91 6c3d a6a7 b53d 7f80 983d f661 42bd
00000310: c6f6 893c e2f9 3abe e9c0 713e 2aae cc3c
00000320: bddf 133e f993 bcbb 0eef 883e b36b 7fbe
00000330: c8d0 12bd 6217 c23b 9f62 d13c 4ae6 293e
00000340: c05e 01bc b382 103e 4115 07bf cb8e 9fbe
00000350: daa0 053e fe57 2cbd a9e5 8d3b 6b10 ff3d
00000360: b32a 1dbe f8e2 9e3c 8df0 323e cb44 3d3d
00000370: d614 7ebe 1bcd a3be 71fe 743d 5b99 9a3e
00000380: 1979 093d 7a84 eb3d 5d00 e2be 028d ce3e
00000390: 393e 0e3e a912 11bf 0917 223e a07f 83bc
000003a0: 1784 383d 00c7 7d3d e4ac 923e 5df7 4bbe
000003b0: 5796 51be c69a 393e 8c34 3bbd 208a bcbb
000003c0: cc73 56bd 45c8 4b3e 4cf6 92bd e729 c9b8
000003d0: c2d7 06bd 5135 4d3c 61f0 2a3e 2cee 843d
000003e0: f1fe fbbb a7d3 c0bd faa4 8ebd 50e3 aa3e
000003f0: ead5 d93b 82ca c8bd e3ab c63d 81b0 2c3d
-0.12130509 0.1604409 -0.3018278 0.3734916 0.048654478 -0.00969488 0.11866126 0.017783538
-0.14507218 0.20347756 0.15950526 0.1412465 0.8151107 0.06743964 -0.17337711 0.24052037
-0.05753227 -0.12974505 -0.1308184 0.07364962 0.055804774 -0.06310927 -1.0697076 0.09394788
0.06508826 -0.07985289 0.030604124 -0.100585334 -0.44881067 0.18212508 -0.27367184 -0.26438925
-0.2947755 -0.24555185 0.18975094 -0.11654635 -0.102043055 0.057947125 0.12397529 -0.10705838
0.002950361 0.3300929 0.08276105 0.1874816 0.73985636 0.20999983 -0.1524001 0.27767423
-0.07767428 -0.3020048 -0.101964295 -0.22982281 0.046237256 0.097077474 -0.67971104 -0.04452787
0.13559848 0.000822184 -0.0024812198 0.026825173 -0.2570512 0.29242578 -0.09989753 -0.13198133
-0.21170421 -0.25448337 0.06223467 -0.029279785 0.041682042 0.04338074 0.06075829 -0.14630617
0.002075605 0.26191062 0.10426415 -0.089751154 0.22565266 0.037202224 0.13595687 0.24347025
-0.00017525603 -0.10640065 -0.222223 -0.0433077 0.009200399 0.080772705 -0.1656486 -0.07507915
0.066921435 0.024185712 0.0053302585 0.07363095 -0.18018529 0.060860664 -0.009409565 -0.015501948
-0.34535548 0.123463385 0.25370854 -0.30218387 -0.055080093 0.086601965 0.23402557 -0.17208807
0.021910084 0.23279855 0.13327967 0.05422116 0.113347284 0.09205532 0.107719064 0.2898188
-0.07714981 -0.066864036 -0.11745451 -0.2036368 0.28249177 0.12176821 -0.14120607 -0.07744008
-0.0137459 0.10957598 0.06989285 -0.07468793 0.03696256 -0.17834035 -0.06508672 -0.104970045
-0.38137287 -0.102092505 0.07364115 -0.11018087 -0.06879594 0.31207514 0.31955686 -0.18071549
-0.09434272 0.14992385 0.05579933 -0.056426913 0.14630353 0.27030978 0.1717091 0.24414039
-0.056676414 0.07180308 -0.23066065 -0.14009763 -0.021833908 0.052597586 0.06429998 -0.25129136
-0.04569135 0.069846086 0.14637038 0.10943261 -0.012047508 -0.13828059 -0.048444442 -0.03511761
0.12847695 -0.34569052 0.20900196 -0.17206031 -0.32890558 0.04051361 -0.06415448 -0.035160936
0.17381202 -0.12996551 0.23069634 -0.42145634 -0.14633885 -0.065500535 -0.0029806867 0.30700117
0.1298853 -0.33703405 -0.25376585 0.03297449 -0.3177386 -0.03439213 -0.3854964 0.25415868
0.26602185 0.19235915 -0.17638999 0.5416557 0.2516082 0.24575067 -0.018751577 0.34861743
0.057756238 0.08869867 0.07446384 -0.047456704 0.016841304 -0.18259385 0.23608746 0.024985392
0.14440818 -0.0057549444 0.26744884 -0.24943428 -0.03584364 0.0059231976 0.025559722 0.16591755
-0.007896125 0.14112358 -0.52766806 -0.3116363 0.13049641 -0.042076103 0.004330356 0.12454303
-0.1534832 0.019395337 0.17474575 0.046208184 -0.24812636 -0.3199242 0.059812967 0.30195126
0.033562753 0.11499877 -0.44140902 0.40341955 0.13890924 -0.566691 0.158291 -0.016052067
0.045047846 0.06195736 0.2864753 -0.1991858 -0.20467506 0.18125448 -0.04570441 -0.0057537705
-0.052356526 0.19900616 -0.07175884 -9.592232e-05 -0.032920606 0.012524919 0.1669326 0.0649074
-0.0076903035 -0.094153695 -0.069650605 0.3337655 0.006647815 -0.0980425 0.097007535 0.042160515

transformer.h.0.ln_1.weight f4 [32]
00000000: 1557 813f 3a8f 713f 5619 963f e166 973f
00000010: caa3 8e3f 4490 ab3f 49a6 8a3f ba92 963f
00000020: 7f19 903f 596e 9e3f 63b8 8b3f 8e8b 5d3f
00000030: c7c0 823f 1b7d 9e3f 1c97 9e3f 74f5 883f
00000040: d347 913f 5624 7e3f f83b 6a3f b255 a53f
00000050: 0d4d 8f3f e718 8a3f 035b 8e3f 4b55 a43f
00000060: d920 7d3f 663c 8b3f 4a24 8f3f c434 833f
00000070: 6a80 8e3f d541 873f e53e a73f d3a3 853f
1.01047 0.9435917 1.1726482 1.1828271 1.1143734 1.3403401 1.0831996 1.1763527
1.1257781 1.2377425 1.0915645 0.8654107 1.0215081 1.2381929 1.2389865 1.0699906
1.1350044 0.99274194 0.91497755 1.2916777 1.1195389 1.078885 1.1121525 1.2838529
0.98878247 1.0877807 1.118295 1.0250478 1.1132939 1.0566965 1.3066069 1.044062

transformer.h.0.attn.c_attn.weight f4 [96, 32]
00000000: d309 10be ef1d ccbe c44b b63e 40ef 45bd
00000010: 493c c4be 88b9 793e 85b9 30bd a743 9fbe
00000020: 88fb 1b3e ddf1 223e dc57 9cbc d1fa 93be
00000030: ce17 c2bd cfe0 1bbd 852a d93d 0551 f43d
00000040: b7c6 4dbd 7ab2 cabd a494 efbc 2c2f 8e3e
00000050: 6d4f a7be a9ac bf3d 185e b2bc b2b0 1f3e
00000060: d562 8a3c 23d4 423e 0d64 1bbe 9e02 233e
00000070: 5b37 9bbc 8551 713e 0105 d93c d502 f23d
00000080: 16b4 4abe c47f 2a3d 47a4 97bd 9b7e 23be
00000090: e1ab c23d 03b5 283e 29c2 803e 60af e23e
000000a0: ccfd 613e e20b dfbe ee23 043d 6946 313e
000000b0: 56ad 81bb 6c48 883d 14c3 cebd 6237 373d
000000c0: 6097 43be 042d e9bd ea5a 95bc 7c1f 2dbf
000000d0: dad9 a53e b772 11bc f0a1 bfbe 7a94 e2ba
000000e0: 6622 cbbb 1710 443e 622e 423d 38c3 d23e
000000f0: bd02 3bbe 87db 54bd 2a4c 353e 4874 b1bd
00000100: 5fb6 fcbc 5d1c 783e 09ce 623d e507 bbbe
00000110: 816f ef3d 5b22 af3d e52f 853e 1254 b53e
00000120: b311 743e 01dc 1cbe e1a5 153e 7db4 833e
00000130: c1cb a03d ea7c db3d 77ed e53d 3f0e c4bd
00000140: 5032 8dbe 076c d7bd 1023 4bbd 08bf 06bf
00000150: 0227 ecbd b668 08bd d9da f1bd 212e 2dbe
00000160: 6c21 e0bd b19d 563c 1910 01be 4bde 8abe
00000170: 477e d03e 7eef 62be 8716 303e dbc0 703c
00000180: f7c7 363e a108 6f3e 1be2 0abe 17a7 f63d
00000190: 8446 ed3e d5b5 00bf b1df 04bd 8a12 90be
000001a0: 4846 73be 2782 803e 1a67 c83d 7ba3 0a3d
000001b0: acc1 893e 1c24 ad3d 6dc3 a6bd bf55 dabd
000001c0: c47e d93d 354b 56bc 59e8 67bd 335a 7a3e
000001d0: 4ac6 8ebe 48da d3be a0eb 053e f285 693e
000001e0: 8cf8 3d3e 5bd1 c1bd 37ce 8abe 0f5b a7bd
000001f0: 0b27 8d3d 1333 833b 10cb a2bd c76e 4b3e
00000200: 47e7 bf3d 2aa5 723e 601e c8be ed78 f83d
00000210: bbaa ca3e 42df cfbd 6549 10bb 0b5a 1d3e
00000220: d5e4 8bbe ceab 2dbe 20eb 80bd b796 353e
00000230: 4163 c13d d232 57bb d404 19bf 65a3 c2bc
00000240: b1e3 b03d 0f1a eabd 5582 39bc 6ba1 763c
00000250: 93a4 803e a47a 71be f398 833d b615 2d3e
00000260: 0497 0b3e 96a4 153d 13c5 103e 2336 da3d
00000270: b2bd aabe 655b 5b3e 4e52 00be cf8b f33a
00000280: 0168 80bd c46a a0bc b63b 903e c621 64be
00000290: 23d2 acbe 0e2e 833d 3401 033e b900 babe
000002a0: 1693 db3d 0961 093f d8ee 08bd 51bb a4bb
000002b0: 051c 133d 21f9 af3d 2428 b13e a983 efbd
000002c0: 452e 16be bbb5 f7bd c9d8 a03d 66a2 4a3e
000002d0: 5ddb a4be 9ac1 8cbd 410e 6c3e 24a9 4bbd
000002e0: fffd d5bd c98d 7b3d 5858 08be e646 b0be
000002f0: 2003 fc3e 99fc d43c f2c9 40bd 6ee5 1fbc
00000300: 5f8e 19be 0c50 9ebe b18d 263e bca7 5abd
00000310: f5e6 8bbe 79cf 5f3e dd2b f8bb 7f03 013e
00000320: f008 7c3e 19e7 b2be 15ef c73c 4159 29be
00000330: c794 87be e126 e2bd 0027 bd3e 15e4 1e3e
00000340: 4982 5fba b965 393e 9721 3cbb 3bd4 98be
00000350: 6ef7 813e 6b9f d33e 9719 68be 203f 47be
00000360: 5fca 34be edc4 8f3d ec07 c83d 3ff3 793e
00000370: 5412 b3bd 8d23 7dbe 7940 753e 5fb2 2fbd
00000380: 5f21 36be c0e8 9abe 4c5f 333e aebc 6cbd
00000390: 6122 cfbe 0db5 953e 3c95 36bb 93c1 233e
000003a0: dd73 943e cf2f 9bbe 509e 7cbd 64de d2bd
000003b0: 84b4 93be 0dfa adbd 43b7 873e eda6 093e
000003c0: 2a7e 99bd 0cc8 073e 7431 e13c 6ef7 3bbe
000003d0: 9a9f 423e 1a92 be3e 71be 1dbe 65b4 2fbe
000003e0: 9452 65be 3895 043e 8546 063e 3412 2d3e
000003f0: 5218 99bd b212 c6bd 46ee 573e 9860 93bd
-0.14066248 -0.39866588 0.3560468 -0.04832387 -0.38327244 0.24387181 -0.043145675 -0.31106302
0.1523267 0.15912576 -0.019084863 -0.28902295 -0.09477197 -0.03805619 0.10603813 0.11929516
-0.050238337 -0.09897323 -0.029245682 0.27770364 -0.32677785 0.09359104 -0.021773383 0.15594748
0.01689283 0.19026236 -0.15174885 0.15918967 -0.018947294 0.23566253 0.026491644 0.118169464
-0.1979526 0.041625753 -0.0740438 -0.15966265 0.095054395 0.164753 0.25148132 0.44274426
0.22069472 -0.43563753 0.032260828 0.17312016 -0.003957431 0.066544384 -0.10095802 0.04473055
-0.19100714 -0.11385539 -0.018231828 -0.67626166 0.3239277 -0.008877448 -0.37428236 -0.0017286681
-0.006199169 0.19146763 0.047407515 0.41164565 -0.18262763 -0.05196717 0.17704836 -0.08664757
-0.03084868 0.2422957 0.05537227 -0.3652946 0.116911896 0.08551475 0.26013103 0.35415703
0.23834877 -0.153183 0.14614059 0.2572364 0.07851363 0.10717185 0.112269334 -0.0957303
-0.27577448 -0.105186515 -0.049593985 -0.5263524 -0.11530878 -0.033302985 -0.1180932 -0.16912128
-0.10943875 0.01309912 -0.12603797 -0.2712272 0.40721342 -0.22161672 0.17196093 0.014694418
0.17849718 0.23343135 -0.13562815 0.120435886 0.46342862 -0.50277454 -0.03243989 -0.28139144
-0.23757279 0.25099298 0.0978529 0.033847313 0.26905572 0.08454153 -0.08142743 -0.10660886
0.10619882 -0.013079454 -0.05661807 0.24448471 -0.27885658 -0.41377473 0.13078165 0.22805002
0.18551844 -0.094637595 -0.27110454 -0.08171665 0.068922125 0.0040038913 -0.07948887 0.19866477
0.093702845 0.23695818 -0.39085674 0.1213244 0.39583382 -0.10150005 -0.0022016403 0.1536638
-0.27323022 -0.1696007 -0.062948465 0.17733274 0.09442759 -0.0032836688 -0.5977299 -0.023759553
0.08637179 -0.114307515 -0.0113225775 0.0150531335 0.2512556 -0.2358194 0.06425657 0.16902813
0.13631827 0.036533915 0.14137678 0.10654857 -0.3334785 0.21421583 -0.12531397 0.0018581095
-0.06269837 -0.01958216 0.28170556 -0.22278509 -0.33754072 0.064052686 0.12793428 -0.36328676
0.10721414 0.5366369 -0.033430904 -0.0050272127 0.035915393 0.085924394 0.34600937 -0.11695034
-0.14666088 -0.12095209 0.078538485 0.19788513 -0.3219861 -0.06872864 0.23052312 -0.049721852
-0.104488365 0.061414514 -0.1331495 -0.3442909 0.49221134 0.025999354 -0.04706759 -0.00975929
-0.14995717 -0.30920446 0.16264988 -0.05338262 -0.27324644 0.21856488 -0.0075735883 0.1259899
0.24612784 -0.3494194 0.024405995 -0.16537954 -0.26480696 -0.11042572 0.36943817 0.15516694
-0.0008526189 0.1810521 -0.0028706545 -0.2984942 0.25384086 0.41332564 -0.22666012 -0.19457674
-0.17655323 0.070199825 0.09767136 0.24409197 -0.0874373 -0.24720593 0.23950376 -0.042894717
-0.17786168 -0.302557 0.17516822 -0.057797126 -0.40455917 0.29239693 -0.0027859947 0.15991811
0.28994647 -0.30309913 -0.061674416 -0.10296324 -0.2884866 -0.08494959 0.26507005 0.13442583
-0.07494767 0.13259906 0.027489401 -0.18356106 0.19006196 0.37220842 -0.15404679 -0.17158659
-0.22394782 0.12947547 0.13112839 0.16901475 -0.07475342 -0.096715346 0.21086988 -0.07196158

transformer.h.0.attn.c_proj.weight f4 [32, 32]
00000000: a55d 2dbd 2666 bc3c 1090 733d 6fd0 623d
00000010: 936c c8bc 8caa b7bd 9e0f f33b 9407 d6bd
00000020: 955b 8d3d f7c3 8cbd defb 9cbd 5f73 42bd
00000030: ce90 5cbd b70e 86bd 3827 173e abf7 12bc
00000040: 054a 083e 550c 94bd a27b 6dbd 3b30 ffbc
00000050: 2e51 1e3d 5b09 a83d c45e 45bd fa22 073d
00000060: 42c2 e4bc 3686 d4bd 68d6 c3bc fb00 bf3c
00000070: 4a9a c23c 7aa1 323d 6041 983d 164c 343d
00000080: 063c 5abc 87f5 003d 0bf0 bbbc 18f1 7a3e
00000090: e74b 07be 9a88 0cbd c282 f73c 891e 913d
000000a0: e157 0f3e 29b6 40bd f4da 853d cafc d9bd
000000b0: 1b5d 4cbd 6d84 49be 0bcc 243d 278a 313d
000000c0: c775 443b a255 0d3d 7ff8 babb 33a5 6d3c
000000d0: 3101 17bd 2167 8dbd 1289 2bbd 25be fd3b
000000e0: 72ce 07be 8bf1 823c 596b 4ebd f2df 0b3e
000000f0: 40ce 5b3d 0296 52bd 9518 d03c df1d 873b
00000100: 0195 8dbc 6011 6a3b d4bb 5a3d 59dd 003e
00000110: 87d0 a8bc 5ad1 e4bb 9826 a7bd 3cf8 a83d
00000120: c481 6abb 6922 b0bd 16c7 683c 93b4 88bd
00000130: 0297 10bd 2885 32be f2e9 76bd b517 7e3d
00000140: ce3c bcbc 0743 11be 0fcc 86bd 4580 b23d
00000150: 5e03 9dbd 6271 b1bc f69f 073c 648b c23d
00000160: 4c1a 0cbe 2630 babd 5d43 8cbd f4d4 513d
00000170: fe4d 523d 6688 dc3b be9c 9c3d 0bfc a8bd
00000180: eb8a 3bbe 533b 05bc d3ee 6cbd 93e7 113e
00000190: 7a5b 95bc fff2 d9bc f0d5 b0bd 75da be3d
000001a0: b8a7 a53d fb2a b5bb 47dd 6c3d 8434 03be
000001b0: 5f9f 07bd ef75 36be 0de8 cb3b 98b7 073e
000001c0: c8ab 3ebb 7a13 783c 11a7 0d3d 7eb3 003c
000001d0: 4322 25bd 58d3 08bb 786c 893c 8b8f 4ebd
000001e0: e478 ed3c 1d7d 8bbc ea4b 3e3c 86ad ba3b
000001f0: a44e 0f3e 0a4f 8bbd cae8 a0b9 ba30 c5bd
00000200: f163 e6bd 1443 13bd 2a16 37bd 929c 893d
00000210: 70a2 d4bc 3c6e e5bb 7223 d7bd 2027 033e
00000220: 4a7b 443d 968a 88bb 3785 e93d 1969 10be
00000230: 741d 21bd 832f bbbd d41d d33c d13d 173e
00000240: 86ec 58bd f9d1 d83c da1a 89bd 9320 14be
00000250: f96d 4a3d dc2c 4abd 690f a03d b515 ed3d
00000260: fc5f 813d c246 683d 33f9 5e3d a2ef 04be
00000270: e6fa e53d 2ac5 97bd 3221 c93d 2b2b 93bd
00000280: 027b 7a3d 8467 cd3b 0628 683d 0c4b 87bd
00000290: 4cd1 b4bc 89d2 8cbc 419d 053c 054f b9bd
000002a0: 227e 75bd 1998 073d d0e8 45bd 22b5 a8bb
000002b0: 65b9 273d a602 a33d 4b9a 6f3d 6c8d 8bbd
000002c0: 8882 8e3d a996 98bd 6501 1abd 7cc7 21bd
000002d0: 7fac c63d bc43 9bbd 1379 f8bb 5671 063d
000002e0: 549f 4f3d b347 48bd 2f18 6cbc 16bf e6bd
000002f0: e2ab bbbd e108 0c3d 267b 913c 886f c03d
00000300: 9c9d 4fbd 0c9c 68bd f499 d1bd 1f13 83bd
00000310: 5e83 b03c 6f78 333d 9c4b 80bd dcd9 1f3e
00000320: ba7c 46bd 79de f23d da88 713d 55d0 b73c
00000330: 3268 773d 2cce ca3c 21a2 3abe 9eec 9a3d
00000340: b072 e7bd 86b7 223e 9c54 df3d a5ba 7e3d
00000350: 3885 85bb 1833 d0bc dfc3 9c3d 0a47 31be
00000360: 4055 ad3d a504 043e 94ca 6b3d b437 86bd
00000370: 1d18 893d c360 cfbd d958 ebbd f5a2 a0bd
00000380: 1d52 6c3c d608 b0bd 41da 1d3d 36df 38bd
00000390: 54fc 95bd b84c 20be 6eec 95b9 4233 2b3d
000003a0: 5324 33bd a827 92bd 81bb ac3d 92ed b23a
000003b0: aa8f 133d e72f 8c3c a239 db3b 0374 5dbc
000003c0: 236c af3d 04c5 86bd 3a64 b3bd ed48 1fbc
000003d0: 7d08 263c aa7c 96bc 511a 05bb 0ce0 a33c
000003e0: 6bc2 df3c cc33 d4bc a2a9 2f3c 9d08 44bd
000003f0: 69c0 ccbc 5a83 283d 523f 923d f9da bb3c
-0.042325635 0.022997927 0.05946356 0.05537456 -0.024465835 -0.08968076 0.007417633 -0.10450664
0.069022335 -0.06873315 -0.07665227 -0.047473308 -0.053849034 -0.065457754 0.14761055 -0.008970181
0.13309486 -0.07228915 -0.057979234 -0.031150928 0.038651638 0.082049094 -0.04818608 0.03299234
-0.02792466 -0.10377161 -0.023905948 0.023315897 0.023755211 0.043611027 0.07434344 0.044017874
-0.013319975 0.031484153 -0.02294161 0.24506032 -0.13212548 -0.03430996 0.030213717 0.07085902
0.13998367 -0.04704872 0.065359026 -0.10643919 -0.04989348 -0.19679423 0.040233653 0.043344643
0.0029977427 0.034505494 -0.0057058926 0.014504719 -0.03686637 -0.06904436 -0.041878767 0.0077436143
-0.13262346 0.015984317 -0.050395343 0.13659647 0.053663492 -0.05141259 0.025402347 0.004123434
-0.017282965 0.0035715923 0.053401783 0.12584437 -0.020607246 -0.0069829645 -0.08161658 0.08250472
-0.0035782913 -0.08600313 0.014207622 -0.06675067 -0.035300262 -0.17433608 -0.0602817 0.062034328
-0.022978213 -0.14185725 -0.0658189 0.08715872 -0.07666658 -0.02166051 0.008277884 0.09499243
-0.13681906 -0.09091215 -0.06848786 0.05122848 0.05134391 0.006730127 0.07647084 -0.082511984
-0.18314712 -0.00813182 -0.057844948 0.14248495 -0.018232096 -0.026605127 -0.08634555 0.09319011
0.080886304 -0.0055288053 0.057828214 -0.12813002 -0.033110972 -0.17818426 0.006222731 0.13253629
-0.0029094089 0.015141362 0.034583155 0.007855294 -0.040315878 -0.0020877924 0.016775355 -0.050429862
0.02898831 -0.017027432 0.011614779 0.005696955 0.13994843 -0.06802185 -0.0003069102 -0.096284345
-0.11249531 -0.035952643 -0.04469887 0.067193165 -0.025956362 -0.0070016664 -0.105048075 0.12807894
0.04796914 -0.0041669114 0.11402362 -0.14102592 -0.03933473 -0.091399215 0.02577106 0.14769675
-0.05295994 0.02646731 -0.06694575 -0.14465551 0.049421284 -0.049359187 0.07815439 0.11576406
0.06317136 0.056708105 0.054436874 -0.12982038 0.11229496 -0.07410653 0.09820785 -0.07185968
0.061152466 0.0062684435 0.056678794 -0.06606111 -0.022072457 -0.017190235 0.008155168 -0.09048275
-0.059934743 0.033104036 -0.04831773 -0.005148546 0.04094829 0.079594895 0.058496755 -0.068140835
0.069584906 -0.07450611 -0.037598986 -0.039496884 0.0970087 -0.07581279 -0.0075827925 0.03282293
0.050689057 -0.048896503 -0.014410063 -0.112669155 -0.091636434 0.034188155 0.017758917 0.09396273
-0.050687417 -0.056789443 -0.10234442 -0.064001314 0.021547016 0.043816026 -0.06264421 0.1561045
-0.048458792 0.118588395 0.058968402 0.022438208 0.060402103 0.024756514 -0.1822591 0.075646624
-0.11301172 0.15890321 0.1090481 0.062189717 -0.004074719 -0.025414988 0.07654547 -0.17312256
0.08463526 0.12892397 0.05756624 -0.06553593 0.06694052 -0.10125878 -0.11491556 -0.078435816
0.014423874 -0.08595435 0.03853822 -0.045134746 -0.073235184 -0.15654266 -0.00028595648 0.04179693
-0.043735813 -0.0713647 0.08434201 0.0013651124 0.03602568 0.017112685 0.00669022 -0.013516429
0.08565547 -0.065805465 -0.08759351 -0.009721977 0.01013386 -0.018369991 -0.0020309875 0.020004295
0.027314385 -0.025903605 0.010721596 -0.047859777 -0.024994092 0.04114089 0.07140984 0.022931563

transformer.h.0.ln_2.weight f4 [32]
00000000: 5aaa 863f 5568 803f 7458 3e3f 8630 8a3f
00000010: 4308 493f 6dac 603f ed00 8a3f 6758 7d3f
00000020: 57c5 203f b00a b03f 0008 833f c023 953f
00000030: f733 883f 4e20 543f 23b4 6c3f 93e2 883f
00000040: 15b4 703f be33 7d3f 2cb2 833f dd16 7a3f
00000050: f34a 603f 2548 7f3f 7ac0 653f 81b2 793f
00000060: d7e2 773f c9f7 463f 7c2b 123f 0763 933f
00000070: 9a44 9d3f 2c98 723f cf35 6e3f 8a15 893f
1.0520737 1.003184 0.7435372 1.0796058 0.7852823 0.877631 1.0781533 0.98963016
0.62801117 1.3753262 1.0236816 1.1651535 1.0640858 0.82861793 0.92462367 1.0694145
0.94024783 0.9890708 1.0288749 0.97691137 0.87614363 0.9971946 0.8974682 0.97538
0.96830505 0.7772184 0.570976 1.1514596 1.228656 0.94763446 0.93050855 1.0709698

transformer.h.0.mlp.c_fc.weight f4 [128, 32]
00000000: 69d2 ff3d 19a3 1b3e 8fe7 b33c 7acc 8a3c
00000010: d0e2 9fbc c107 9c3d 939e aabd 74a5 0f3e
00000020: bd5f ebbd d000 d53c ac86 cabd bb4c 223e
00000030: 3e4c 7f3b fbdd afbd 6744 85bd 596c d9bd
00000040: 754a dfbd 9147 b8bd 7049 533e 5765 ccbc
00000050: 0fe8 863c 3428 babc a829 91bc 396d 83bb
00000060: d194 1bbe afc5 1d3e f273 823c 84f1 033e
00000070: b3a4 9f3d 1921 69bd 51e5 adbd fdde 54be
00000080: e509 d2bc ce63 4abd 41e3 9cbd e6b1 453e
00000090: 7afb 433e d1b2 9ebd 8c4b db3d c53e a03c
000000a0: 573f 9dbe 445c 67bd 6689 ac3d 36bc ba3c
000000b0: 4484 ebbc 8344 343e 6535 523e f268 d53d
000000c0: 5f25 afbb b198 873e 853b 84bc 702d d9bd
000000d0: 5333 72be 7453 62bd 1260 583d f04d 29be
000000e0: 8611 4d3e c16b 01be aeef 2dbe 4216 efbd
000000f0: 9f9c e5bd a27f 4fbe db2c 8fbc ec03 fbbc
00000100: c05c 27bd fe99 723e 96df ad3d 147c b33e
00000110: 81d5 1e3e b43d 1bbe 285e c83d d96f aebd
00000120: 09b1 623d 3756 debe 3b8f 0fbe cbf7 673d
00000130: 9f78 7dbe 3804 cc3d eee3 913c f07b 93be
00000140: f637 d8bd f764 ad3d f426 623e db7d 8b3d
00000150: 57fc a63c 021e 0b3d f836 f33d b644 7bbd
00000160: 48c8 753e 01e8 febd 4770 abbd 2493 863e
00000170: a143 5abe 161f a7bc fa14 ed3c 56e1 21be
00000180: 469e 923d eee7 f63d b48f 8dbd 1a27 bfbd
00000190: fbdd 2abd 40d6 c13d b329 96bd 46f9 4cbd
000001a0: 158d 15bc 4732 9e3d aa10 cdbd 7cc2 223e
000001b0: 4732 f83c 8fb3 17be 5c54 f7bd 3b68 85bd
000001c0: 1495 b9bc 11f0 dcbd 93be 5a3d eb0a 61bd
000001d0: ced4 e53d 367f a93d 902a 083e 1146 753c
000001e0: b630 e4bd bfb0 0f3e ba41 0fbd 337d 15bd
000001f0: 7c0f 443e d141 043e 0e1b 15be eb5e 36be
00000200: 3079 093d 9209 823d 8b5a 073e d1e1 eabb
00000210: 5c8c a43c 2b64 b73c 23b0 bd3c 0965 4d3e
00000220: 1a01 1b3d 1266 8bbe f793 c83d 6f8d 09be
00000230: 4e95 023e b72d 33bd 5c6c dbbd bdc8 d83c
00000240: e4ea 27be bc87 6b3d c49e c5bd 4f28 e9bd
00000250: 7a06 bd3c 1f77 6fbe ab09 83be 73dc 223e
00000260: a382 09be a281 593d 990e 243c fe67 653e
00000270: 022c 123e 085e 90bd cb03 013e 5438 233e
00000280: a673 c7bd 39ef 173e cd72 253d f852 843d
00000290: eaa2 e93d eef5 47be e554 423e 77e1 13be
000002a0: 114f 283e 9d00 05be 9f50 f8bd 536f 163e
000002b0: 31bd 4fbd afd8 043e 07c5 1e3e dc7e 30be
000002c0: d71d cabd d215 663d 8fb8 043e 7c90 0abe
000002d0: a064 30bd f8f8 0abe a4a4 0b3d 1a94 24bd
000002e0: 5092 ae3c aa5e d4bc d68a 003d f81d 833d
000002f0: 21e7 89bd ac2e 18be ddf1 043e ea21 19be
00000300: 3973 833d 3ae2 81bc b223 7d3d 4cd0 2dbd
00000310: 14ae 033e 139c 19be 9091 92bd 987c a8bd
00000320: f8be 4ebd 78d9 41bd 6fbd 8abd d42b 223d
00000330: e902 013c 1174 a9bd ad79 3c3d f191 61bd
00000340: 5c1c bf3d 2a9c 3ebd 0c5e 493c c4c5 023c
00000350: 2f52 113c 582d 58bd e9ee 873d a07d 043d
00000360: 5ee5 923c 484c df3c c152 ac3c 1e4b 823d
00000370: 76ed 8b3d 6387 6abd 521e cb3d 6cd2 6e3d
00000380: 301c 36be 0496 33be 4646 853d a9d9 86be
00000390: 8dc7 33bc e065 cabc fb0d a63d 3df4 0c3e
000003a0: f89a a63d df3e a13a 866b 7e3d 6d0a 0cbc
000003b0: 2717 813e 8d4b c03c 8ef2 bdbc 0f61 5d3e
000003c0: b91b 01be 66f3 1dbe 24a3 03be 56e4 19be
000003d0: bfe0 383e 0844 0f3d 461a 49be dc93 c93d
000003e0: a5c1 cf3d f8cb 4c3d 005e d63c 5c23 d93c
000003f0: 79e9 6f3e b0c6 0b3e 359e 96bd 79e5 6b3d
0.124913044 0.15198936 0.021961002 0.016943205 -0.019517332 0.076186664 -0.08331027 0.14027959
-0.1149287 0.026001364 -0.09888968 0.15849583 0.0038955356 -0.08587261 -0.06507187 -0.10616369
-0.109028734 -0.08998025 0.20633483 -0.024950666 0.016468076 -0.022724248 -0.017720059 -0.004010823
-0.15193488 0.15407442 0.015924428 0.128851 0.07795086 -0.05691633 -0.08491004 -0.20788188
-0.025639484 -0.049411587 -0.07660533 0.19306144 0.191389 -0.0774895 0.10707769 0.01956118
-0.30712387 -0.056484476 0.08424644 0.022794824 -0.028749593 0.1760426 0.20528181 0.10420407
-0.005345031 0.26483682 -0.016141662 -0.1060437 -0.23652391 -0.05525537 0.052825995 -0.16533637
0.20026216 -0.12638761 -0.16985962 -0.11674167 -0.11211514 -0.20263532 -0.017477443 -0.030641519
-0.040859938 0.23691556 0.08489911 0.35055602 0.15511133 -0.15160257 0.09783584 -0.08517427
0.055344615 -0.43425152 -0.14019482 0.0566328 -0.24753045 0.09961742 0.01780888 -0.28805494
-0.10557549 0.08466523 0.22085172 0.068111144 0.020383997 0.033964165 0.11875719 -0.061344825
0.24002182 -0.12446595 -0.083710246 0.26284134 -0.21314861 -0.020400565 0.028940666 -0.15808615
0.071590945 0.12055956 -0.06912175 -0.0933363 -0.041715603 0.09464693 -0.07332172 -0.050042413
-0.009127875 0.077244334 -0.10012944 0.15894502 0.030297412 -0.1481459 -0.12076637 -0.06514021
-0.022654094 -0.107879765 0.053404402 -0.054942053 0.1122223 0.08276217 0.13297486 0.014970318
-0.111421034 0.14032267 -0.03497479 -0.036496352 0.19146532 0.12915732 -0.14561102 -0.17809646
0.03356284 0.06349482 0.13218133 -0.0071680327 0.02008646 0.022386631 0.023155278 0.20058073
0.037842847 -0.2722631 0.09793847 -0.13432859 0.12752268 -0.04374477 -0.10714027 0.026462907
-0.16398197 0.057502493 -0.09649423 -0.113846414 0.023074377 -0.23385285 -0.25593314 0.15904407
-0.1342874 0.053102143 0.010013246 0.22402951 0.142746 -0.07049185 0.12599103 0.15939456
-0.09738855 0.1483735 0.040392686 0.064611375 0.114080265 -0.19527408 0.18977697 -0.14441477
0.16436411 -0.12988515 -0.12124752 0.14690904 -0.050717536 0.12973283 0.15504847 -0.17235893
-0.09868973 0.056173153 0.12961029 -0.13531679 -0.043064713 -0.13571537 0.03409256 -0.040180303
0.021310002 -0.025924046 0.031382404 0.064022005 -0.067335375 -0.14861554 0.12982889 -0.14954343
0.06418461 -0.015854944 0.06180162 -0.042434976 0.12859374 -0.15000944 -0.0715667 -0.08226889
-0.05047509 -0.047326535 -0.06774413 0.03959258 0.007874229 -0.08274091 0.046014477 -0.05507082
0.09331581 -0.04653565 0.012290489 0.007981721 0.008869692 -0.05277762 0.06637365 0.032346368
0.017931636 0.027258053 0.021035554 0.06361984 0.068324015 -0.05725802 0.099178925 0.058306143
-0.1778419 -0.17537695 0.06507544 -0.26337937 -0.01097287 -0.02470678 0.08108135 0.13765045
0.08135027 0.0012302062 0.06211426 -0.008547408 0.25212976 0.023473525 -0.023186948 0.21619056
-0.12608232 -0.1542488 -0.12855202 -0.1502851 0.18054484 0.03497699 -0.19638929 0.09842655
0.10144357 0.049999207 0.02616787 0.026506118 0.23428907 0.13650012 -0.07354394 0.05759189

transformer.h.0.mlp.c_proj.weight f4 [32, 128]
00000000: f3a6 02bc bec4 793b 86a2 38bd eaac 24bc
00000010: cf9a e7bc ea8c 5fbe 7820 6c3d f680 82bd
00000020: a2d8 d33b e8e9 b93d ece8 743d 5006 a0bb
00000030: 7785 febd 3dad 4fbd 8173 5e3d 5ad8 53bd
00000040: 712a 3a3d baf8 693c 4e95 e3bd 2b89 0e3d
00000050: 6252 28bd 6353 343d 8bf9 2abd 624a 1d3d
00000060: c4c1 c8bc 2e35 083d 26bf c1bc 8a7f a4bd
00000070: 26c4 40be 269b 61bd da17 ee3d d503 80bd
00000080: e5ba 183c 9184 38bd 8aa9 093d 4a34 b43d
00000090: e1b0 ae3b e0d5 d9bc 6dd0 7ebd 497b 80bc
000000a0: 272e 80bc f8b1 213c 2774 13bd c291 c03a
000000b0: a203 4e3d 972f 133d ba88 f0bd 4a22 e6bd
000000c0: cf24 4f3d af41 37be ef14 e73c 5201 2fbe
000000d0: cb22 43bc 10e2 bebc bd57 babd 97f8 c83c
000000e0: e4dd 58bd a8c2 9cbd 6ba2 943d 1cd2 cabc
000000f0: 3822 28bd 739a 3c3d 12a8 c0bd 8d10 c5bd
00000100: 8426 dfbd 0783 f6bb ab18 483d a251 08be
00000110: a077 b0bd 2546 81bb fcca 50bd 7912 07bd
00000120: 8396 9abc b520 6c3c 3bb7 4fbd 923c 63bd
00000130: 5731 223d eba8 fcbd 77dd 5cbe 846a d8bd
00000140: 67ef e43d 3740 aabc 0a05 c13c 44e6 f2bd
00000150: 552c 6bbc 1658 96be 5f94 2ebd 8f9a f7bd
00000160: 204f bcba 35d9 bcbc 7bd5 7b3d 62e0 42be
00000170: cd86 08bd da06 b2bc 840e a8bd da5f bd36
00000180: 66bc 083c 974e 5e3d a70e 99bd f88a 25bc
00000190: 3e9c c4bc a6e5 e6bb 1e6a 0a3d 13f2 d43d
000001a0: 9b02 1ebe eac1 d93c a8fe 1bbe a59a 523d
000001b0: 1972 093d bb1f 8cbd 96f2 c8bd 93ee 67bd
000001c0: ad8f 453d 0f90 22bc bc49 08be b8fc 263d
000001d0: 6c26 39be 89e0 29bd 7f24 2cbd 1a6c c6bd
000001e0: 3502 213d af9d cd3d 7fb8 983d fbfe cb3b
000001f0: 7bb8 26bc 4ef0 8abb b64c e9bd fa5e eabc
00000200: 6556 28bc 084f 8c3d 4d7c 6b3e 07cd b5bd
00000210: 2b3d 99bd 4d19 6b3d 36fb e8bd 0ce7 d5bd
00000220: 3f61 dabd 98a6 8c3c efa3 2e3d 8d3d d0bd
00000230: 0036 2bbe eb33 25be b3ce 4cbd 6300 3fbd
00000240: c2c0 80bd db51 8fbd beab d4bd dffa 11bd
00000250: 610f d5bd c0a5 c7bd a960 f73d dec0 b73d
00000260: a461 353d 69bf a93d a866 2d3d cc2d a6bd
00000270: b7c4 82bd 1c71 02be 67e8 a2bd e4fc 37be
00000280: 068f 22be d54b 203e 759c 04be bfdf aabd
00000290: 52bd 8abd 0bd2 e53c acdc 663d 4500 bcbd
000002a0: 56b0 23bd d25b 31be 1a17 18be 203c 763c
000002b0: 7dc4 04be 30d9 32be 7bf2 dabd 8798 0b3e
000002c0: 26c8 edbb 9f95 1dbd 70bb c8bd e0e6 bb3d
000002d0: 6a18 bebd df3e 94bd ad1e 15be ae4f 9dbd
000002e0: 75b6 3fbe 2d26 ad3d 9fce a33c 1748 5a3d
000002f0: 45c1 0fbe a679 04bc d396 793c f517 f23d
00000300: f06d 4bbd 1d54 3e3e c1f7 12bd 1699 173e
00000310: d46f d7bc e736 5abe ac60 c1bd 6cfa 6fbd
00000320: e099 1a3e 957e f9bd dab8 32be 4e3c 1a3d
00000330: f465 24be e853 4ebe 75c9 06be 62b5 04be
00000340: ccf8 08be f754 3e3d f66d 82bd 4995 22be
00000350: bab2 4fbd cfbc 7fbe 0247 debd bd96 d0bd
00000360: 0f81 66be cc3e 0cbe b8b9 00be b5ac 21be
00000370: 0ac8 80be d187 3cbe 21b5 013e f9e6 9fbd
00000380: f58a b4bd b39f c1bd 576a 30be 651e 1fbe
00000390: 5ba6 e7bd dded 10be 6f90 ec3c 7838 4abd
000003a0: 0d7d 1bbd cc0e e13b bccb 0c3e 3c43 ebbd
000003b0: 8d25 8ebd 51d7 81bd 1e6a a8bd b11b 19be
000003c0: 393c b7bd 9228 d1bd 8212 053e 19ae 1dbd
000003d0: dd75 39be 7557 bdbd 502e 38be 18ba ddbd
000003e0: a5e8 40be 1375 2dbe 51e0 6ebd acfc 3abc
000003f0: fe60 03be 7db6 1d3e 80b4 f5bd 8943 28bd
-0.007974374 0.0038111652 -0.04507687 -0.010050992 -0.02827206 -0.21831098 0.057648152 -0.063722536
0.0064650336 0.09077817 0.059792444 -0.004883565 -0.124278 -0.050702322 0.05430937 -0.05172
0.04545063 0.014280492 -0.11112462 0.034798782 -0.04109419 0.044024836 -0.04174189 0.038401015
-0.024506457 0.03325384 -0.023650717 -0.08032139 -0.18824825 -0.0550796 0.11625643 -0.06250731
0.009321903 -0.0450483 0.03360895 0.08799036 0.005331144 -0.026591241 -0.06221049 -0.015683787
-0.015647007 0.009869091 -0.035999443 0.0014691877 0.050296433 0.035934057 -0.117448285 -0.11237009
0.050572213 -0.1789615 0.028208224 -0.17090347 -0.011910151 -0.023301154 -0.09098766 0.0245326
-0.052945986 -0.07654315 0.07257541 -0.024758391 -0.04104826 0.04604573 -0.09407057 -0.096222974
-0.10896018 -0.007522944 0.04885165 -0.1331239 -0.08616567 -0.0039451295 -0.05097483 -0.0329766
-0.018870598 0.014412095 -0.05071185 -0.055477686 0.039597835 -0.12336906 -0.21568857 -0.10567191
0.11178475 -0.020782573 0.023561973 -0.11860326 -0.014353831 -0.2936408 -0.042621966 -0.120900266
-0.0014366843 -0.023052791 0.061482888 -0.19030908 -0.03333168 -0.021731783 -0.08205894 5.6437975e-06
0.008345699 0.054274168 -0.07473498 -0.0101039335 -0.024000283 -0.007046419 0.033792607 0.103977345
-0.15430681 0.026581723 -0.15233862 0.05141701 0.033556078 -0.068419896 -0.098118946 -0.056624006
0.048232723 -0.009922042 -0.13309377 0.040768355 -0.18081063 -0.0414739 -0.042026993 -0.096885875
0.039308745 0.100398414 0.07457065 0.0062254644 -0.0101758195 -0.0042400723 -0.113915846 -0.028609741
-0.010274504 0.068510115 0.22996636 -0.088769965 -0.0748237 0.057397176 -0.1137604 -0.10444459
-0.106630795 0.017169282 0.042636808 -0.1016799 -0.16719818 -0.16133086 -0.05000181 -0.04663123
-0.06286766 -0.069980346 -0.1038432 -0.03563964 -0.10403324 -0.09748411 0.12078983 0.08972333
0.04428257 0.08288462 0.04233423 -0.08114204 -0.06385177 -0.1273846 -0.079544835 -0.17967564
-0.15874872 0.15653928 -0.12950309 -0.083434574 -0.06774391 0.028054258 0.056362793 -0.09179739
-0.03996309 -0.17320183 -0.14852563 0.015028983 -0.1296558 -0.17465663 -0.10690781 0.13632403
-0.0072565256 -0.038472768 -0.09801376 0.09174895 -0.09282 -0.07238554 -0.14562483 -0.07681213
-0.18721946 0.08454547 0.019995986 0.053291406 -0.1403857 -0.008085644 0.015233713 0.11820976
-0.04966539 0.18586774 -0.035880808 0.14804491 -0.026298441 -0.21310006 -0.09442267 -0.05858843
0.15097761 -0.12182347 -0.17453328 0.037655167 -0.16054517 -0.20149195 -0.13162787 -0.12959817
-0.13376158 0.046467748 -0.0636863 -0.1587726 -0.050707556 -0.24974369 -0.108533874 -0.10185001
-0.2251017 -0.1369583 -0.12570846 -0.15788539 -0.25152618 -0.18411185 0.12666751 -0.078077264
-0.088155665 -0.09454288 -0.17228065 -0.15538938 -0.11311027 -0.14153238 0.028877465 -0.04937026
-0.037961055 0.006868219 0.13749593 -0.11487433 -0.06940756 -0.063398965 -0.08223365 -0.1495197
-0.089470334 -0.10212816 0.12995341 -0.03849611 -0.18111368 -0.09245197 -0.17986417 -0.1082651
-0.18838747 -0.16939192 -0.058319394 -0.011412781 -0.12829968 0.15401645 -0.11997318 -0.04108003

transformer.h.1.ln_1.weight f4 [32]
00000000: 582c 943f ab35 da3f d0e8 c33f 43ea d03f
00000010: 51f5 763f 43c9 c43f d280 7d3f b404 c43f
00000020: 317a c43f d335 e33f 5c9d d53f c1a6 e23f
00000030: 0e69 da3f 004e d93f 3cf9 c53f 3082 e63f
00000040: 56da 823f 3eca d43f 31f2 c83f 7d4d d13f
00000050: 3928 e73f bdd5 c03f 14e5 dd3f 1c3e e63f
00000060: 2a56 973f dd1e dc3f da04 673f 72ba d23f
00000070: 6202 b73f 634c bc3f 1316 d53f 56f2 d43f
1.1576033 1.7047628 1.5305424 1.6321491 0.96468073 1.537392 0.9902469 1.5313935
1.534979 1.7750801 1.6688647 1.7707139 1.706331 1.6976929 1.5466685 1.800848
1.0222881 1.662422 1.5698911 1.6351773 1.805915 1.5065228 1.7335534 1.7987704
1.182317 1.7196919 0.9024178 1.6463149 1.4297602 1.4710811 1.6647362 1.6636455

transformer.h.1.attn.c_attn.weight f4 [96, 32]
00000000: 0c1a 0b3f 3c9b 50bf 8727 52bf 4241 58bf
00000010: 14a5 11be c6e2 503f d1f6 56be 4686 54bf
00000020: 4e86 473f d82a 7cbf c855 373f 5f71 5dbf
00000030: 3878 48bf b165 80bf d128 423f ca18 543f
00000040: 3113 083e a89b 543f 47de 32bf 84c9 57bf
00000050: 28a7 523f e422 303f 50b0 5f3f 14bd 7abf
00000060: f90c a8be 0817 803f 88ef fb3d fc79 42bf
00000070: 74cc 3abf bb22 413f 186a 463f e304 3b3f
00000080: 5ab4 c13e 0f19 12bf 0c94 36bf 341f fcbe
00000090: 563a c9bb 8d66 3e3f 2f5d 97bc 1921 0dbf
000000a0: 54b6 193f 2ee8 56bf 81b2 1a3f 6e6d 13bf
000000b0: 5d17 29bf 4241 65bf 3c71 053f 6286 153f
000000c0: 528e 273c f6c2 503f 9d2c e6be 9943 1ebf
000000d0: a3fe 453f ebd6 223f b50c 343f 1a78 4abf
000000e0: ab7c 5abe 14bb 503f 4328 dc3c 2d70 27bf
000000f0: d401 45bf 7e86 243f dade 273f 25ea 023f
00000100: 0e3a e9be 8fd8 533f e901 543f 2830 4e3f
00000110: ea9c 053e cff0 4cbf 4340 a63d d268 4b3f
00000120: 8215 5abf 46b2 883f 89da 26bf f4ca 4a3f
00000130: c48b 473f 5e58 733f 45a3 34bf bcf8 3ebf
00000140: f3ab 83bd 64a7 36bf 0c7e 2c3f 01c6 473f
00000150: a86e 50bf e258 27bf 879c 50bf 3a57 693f
00000160: db2d 8d3e 3c2c 73bf 50bb d3bd 0f09 363f
00000170: 583d 303f acb5 42bf 9a6b 42bf 9bc0 31bf
00000180: c2d3 023f 85b5 39bf 8492 46bf 3366 2bbf
00000190: 4402 01be 064e 583f 8a1c 34be 6119 4fbf
000001a0: b91c 3e3f 8ae0 7fbf 2450 263f 2913 4bbf
000001b0: 40da 58bf 75f3 81bf 73fc 2e3f c71d 3c3f
000001c0: 2414 ff3d ab01 593f bcaf 15bf 00cf 36bf
000001d0: 4f50 563f 2607 533f 6da5 703f 5765 6dbf
000001e0: 9abd b1be 286a 833f f8d9 f13d c35f 4dbf
000001f0: c6c0 4dbf fb2d 4f3f c623 373f 2711 393f
00000200: 8ad3 f73e b342 45bf c88d 59bf a284 52bf
00000210: c247 2cbe 8274 5b3f 661c 04be b829 4abf
00000220: f39f 543f eee0 89bf 9673 2a3f 639a 4ebf
00000230: f4ac 47bf d3a1 7cbf b204 373f 775b 443f
00000240: 516c d23d c847 4e3f 5dd1 1cbf 9cb9 50bf
00000250: 1e48 5e3f 6ef9 223f aa69 643f fae0 6abf
00000260: 71bb 99be 8294 8f3f 9889 133e 0215 3bbf
00000270: ff6e 46bf 6227 413f c453 4a3f 23d9 313f
00000280: f3e1 b5be 5432 ec3e 5581 363f d7f2 093f
00000290: 28bb 61bc dc59 41bf dbc7 353d 96db 073f
000002a0: e417 0ebf 7506 5d3f 252d e6be 2424 f73e
000002b0: ae4e 2b3f bf99 693f a89e f4be 647f eabe
000002c0: 3b5d 85bb c0b9 56bf d669 b13e 4778 0b3f
000002d0: e7c0 32bf 6d5c 10bf 8ea7 2cbf 031d 3b3f
000002e0: 19ed 5b3e 6221 5ebf bdf0 dfbc b84a 323f
000002f0: 6465 3c3f 24e0 48bf 5e42 0fbf ce51 f6be
00000300: 3c55 d33e 85e1 38bf 5259 4cbf 32fc 35bf
00000310: e2fd c5bb d8f3 2f3f 32fb f3bc f4ef 30bf
00000320: 1b8b 373f 5b88 6dbf 9168 1a3f 64ac 2dbf
00000330: 2aca 23bf cc11 59bf e6af 153f b15c 2e3f
00000340: 715e 663d fcc8 353f 2343 00bf 121c 17bf
00000350: e9a4 593f 3a9c 263f 03a3 473f 1b63 5bbf
00000360: 1c5e 76be c736 683f fb22 8dbc a9f9 21bf
00000370: 1e66 24bf a5ea 333f 5e24 213f eab9 0d3f
00000380: 2d48 ed3e a021 45bf bf9e 48bf 340a 35bf
00000390: 4855 0dbe 8f5d 523f 4289 10be 2dbb 3fbf
000003a0: cdfa 313f e31a 7cbf 2a45 243f cc42 3abf
000003b0: c13e 4abf b065 6ebf 29f0 253f 37d4 373f
000003c0: 028f e43d fd4e 513f af6d 1abf f771 38bf
000003d0: fc18 4b3f c2f8 453f 2fec 643f d1e4 69bf
000003e0: ab3e a3be 44cf 893f a15d 053e 4c70 41bf
000003f0: db5d 36bf 3b72 423f a718 2e3f 8fca 383f
0.5433662 -0.8148687 -0.82091564 -0.84474576 -0.14223129 0.8159603 -0.2099259 -0.83017385
0.7793931 -0.98502874 0.71615267 -0.86501116 -0.7830844 -1.0031034 0.7584353 0.82850325
0.13288571 0.8305001 -0.6987042 -0.84291863 0.8228631 0.6880324 0.87378407 -0.9794476
-0.32822397 1.0007029 0.12301546 -0.75967383 -0.7296822 0.7544362 0.77505636 0.7305433
0.3783291 -0.57069486 -0.7131965 -0.49242556 -0.0061409874 0.7437523 -0.01847705 -0.5512863
0.60043836 -0.8394803 0.60428625 -0.5758885 -0.66051275 -0.895527 0.52125907 0.58408177
0.010226803 0.81547487 -0.44955912 -0.61821896 0.7734167 0.6360919 0.7033189 -0.7908951
-0.2133662 0.8153546 0.026874667 -0.6540554 -0.76955914 0.6426772 0.6557442 0.51138526
-0.45552105 0.8275232 0.82815415 0.8054223 0.13048139 -0.80054945 0.08117726 0.7945682
-0.8518907 1.0679405 -0.6517721 0.7921593 0.7794764 0.9505671 -0.7056163 -0.7459829
-0.06429281 -0.7134917 0.6737983 0.78036505 -0.8141885 -0.6537 -0.8148884 0.9114872
0.27574047 -0.9498937 -0.103384614 0.7110757 0.68843603 -0.7605846 -0.75945437 -0.6943452
0.51104367 -0.725426 -0.77567315 -0.6695282 -0.1259852 0.84494054 -0.17589012 -0.808981
0.7426258 -0.99951994 0.64966035 -0.7932611 -0.84708023 -1.0152422 0.68353957 0.73482937
0.124550134 0.8476817 -0.58471274 -0.71409607 0.8371629 0.8243278 0.9400242 -0.9273276
-0.34714967 1.0266771 0.11809152 -0.80224246 -0.80372274 0.80929536 0.7153896 0.722918
0.4840358 -0.770549 -0.84981966 -0.8223363 -0.16824248 0.8572465 -0.12901458 -0.7896991
0.83056563 -1.0771768 0.6658262 -0.80704325 -0.7799828 -0.98684424 0.7149154 0.76702064
0.10274566 0.8057828 -0.61256963 -0.8153322 0.8682879 0.6366185 0.8922373 -0.91749537
-0.3002582 1.1217196 0.14407957 -0.7307893 -0.77513117 0.7545072 0.79034066 0.6947195
-0.35523948 0.46132147 0.71291095 0.5388617 -0.013777532 -0.7552774 0.04438005 0.53069437
-0.55505204 0.8633798 -0.44956318 0.4826976 0.6691693 0.9125022 -0.47777295 -0.45800316
-0.004069952 -0.8387718 0.3465106 0.54480404 -0.69825596 -0.5639103 -0.6744317 0.73091143
0.21477164 -0.8676969 -0.027336473 0.6964526 0.7359221 -0.7846701 -0.55960643 -0.48109287
0.41275966 -0.72219115 -0.7982379 -0.71087945 -0.006042228 0.6873145 -0.029782865 -0.6911614
0.71696633 -0.92786187 0.60315806 -0.6784117 -0.6398035 -0.8479278 0.58471525 0.68110186
0.05624241 0.710098 -0.5010244 -0.59027207 0.8501726 0.6508213 0.7798311 -0.856981
-0.24059337 0.90708584 -0.017228594 -0.63271576 -0.6421832 0.70279914 0.62946117 0.5536181
0.46344128 -0.7700443 -0.7836723 -0.70718694 -0.13802063 0.8217401 -0.1411486 -0.7489498
0.69523317 -0.98478526 0.64168036 -0.72758174 -0.79002005 -0.9312391 0.6481958 0.7180819
0.11160089 0.8176115 -0.60323614 -0.72048897 0.79335 0.773327 0.8942289 -0.9136477
-0.3188375 1.0766377 0.13023998 -0.75561976 -0.7123696 0.7595555 0.68006366 0.7218408

transformer.h.1.attn.c_proj.weight f4 [32, 32]
00000000: d64f a1bc d192 e1bd 7204 c0bc 1e05 19be
00000010: 9d9f 693d 6856 fc3d c1d7 a7bc 537d c73d
00000020: f97c a2bd f594 42bc 22ba 0cbd 4233 86bd
00000030: 2a42 713b aaad cf3d 1066 703d a594 fc3c
00000040: 0ce7 e3bd ecc5 c5bd c571 4abd 9aa3 0cbe
00000050: 1fcf 413d e11f a8bd 86ee 143c 4d5c 82be
00000060: bbee 9bbd c68d 00be 641a 58bd ed37 efbd
00000070: 88a4 acbd 3b1c d73d e75e e53b a939 893d
00000080: 9737 eabd f58b 7f3d f2b8 ca3b b4cb c83c
00000090: cfa5 05be fe4a 9cbc 66fe 9abd b6e6 133c
000000a0: e150 b63c 7a97 2abd 0823 273b 7cc0 053e
000000b0: 96ee 0cbd d71b 1bbc 3a29 89bb c7e7 8dbc
000000c0: 646f fa3d 61c0 9bbb bc86 f8b7 dfc8 fbbc
000000d0: 04ff 5d3c 52c9 b5bc e57d 343d 0733 a23c
000000e0: 2046 59bd 49f1 3a3d 2c0b 9bbd 3bc4 8e3d
000000f0: 54bb 42bd a287 1cbd ea03 3e3d c9ec 45bb
00000100: 7640 89bc 681c 9c3d cb6d 9b3c 0a2b bdbc
00000110: 4ab5 7cbe 8a6e b4bd 057e aebd d080 2c3c
00000120: 8786 ed3c 0463 92bc 8070 c7bc b3f4 6f3e
00000130: 73f8 873c d7ea 9bbc 5c62 8e3d 3eb1 063d
00000140: 1098 253d c6d8 84bc 5240 0a3d 71fc b43c
00000150: 3086 36bd ce62 6d3d c1e9 c43c efad d5bc
00000160: 395f 03bd 1a50 3cbb ccfb d6b9 c2da 613d
00000170: af19 1c3d 3cce 09be 567d c93d e21e fbbb
00000180: e28f 943b 239a 333d 9941 9e3d 68f6 8a3d
00000190: 237d 9dbd c29f 38bd ab63 3bbd 3f66 8abd
000001a0: c5fa 9ebc 9d3e 703d d939 e6bc d0e7 893d
000001b0: 949e 08bd fa20 8abb 909f ff3c a336 79bd
000001c0: c2cc 85bc 9b20 9a3d 62f6 0a3d 6c8b b3bb
000001d0: bf20 663d 321a 0fbc fe1d 65bd 533f 953b
000001e0: a1f8 3cbd e1b6 803d a40f 233c 9bc4 ce3c
000001f0: 09a4 2fbd 7782 b2bc 73d5 d43c 6e5f fdbc
00000200: a14d 1cbd 7685 a23d 19a1 25bc ba94 203e
00000210: 6354 b1bd 4692 cfbc 81ae acbd 7f0c 123d
00000220: 41d1 7dbc 90ef 4abc bb79 2d3c 8087 cc3d
00000230: 3792 063d d72e 533c 7514 113d 5d94 4ebd
00000240: cb7d 2d3e e04e a23d 1831 98bc 5271 663d
00000250: 6df9 be3d 0c17 953c a301 273d 5e38 843e
00000260: 340d 98bc f233 183e 7dfd 07bc 38f7 003e
00000270: 9d69 423d 8c7f 2c3c 41b0 a7bc 3533 1e3d
00000280: e958 c23d c0ef d9bd 9113 31bd eb01 b5bd
00000290: 380a 393e 75d6 b13d afd4 8fbc 0953 f8bb
000002a0: b036 d7bd 9019 9f3d 46b5 0ebc af47 48be
000002b0: f398 35bd a617 903d f615 0fbc 7c4b e23b
000002c0: 2b16 56be 7b39 40bd be17 07be aebe 1bbd
000002d0: cfcf 4fbc 6e9e 47be b5f1 80bd 41a2 59be
000002e0: df71 053e 4dee adbd c601 cd3c 0d53 8cbd
000002f0: 7ab2 12be bea6 003e 1f04 adbd 53d9 84bd
00000300: 4635 05bd 30d4 983d ebf7 153b b3b7 283e
00000310: 7161 6cbd 433d 82b8 186c e9bd e701 eab8
00000320: b017 9abc 6c40 723c cd0b 4fbc 4134 963d
00000330: ba13 8dbb 4608 433d 7d56 463d 136b 3dbd
00000340: 1329 3e3e 2bce a33d 4766 1bbd ba28 be3d
00000350: 4878 0b3d 23aa 323b 1204 e73c 002e 973e
00000360: 77a8 843c ad0c 363e b102 583c d612 1d3e
00000370: ecaa 1b3d 9f04 6dba 7cc7 793c 6ad1 423d
00000380: 0593 abbd 9bac ca3c cb42 733d e5fd 1a3d
00000390: c6cb 8fbd 0034 8fbd 42f0 ffbc 9c30 e4bc
000003a0: bc64 2b3d b292 b43d fba6 8fbc 6676 543d
000003b0: 0eda 19bd 41e0 87bd 62fe 323d 091f 7a3c
000003c0: 44a6 b9bd d81a 193d be3d 823d 6b3b 093d
000003d0: e298 59bc 3808 6c3d 2a1c 6fbd d352 99bc
000003e0: 3002 58bc 93aa 323c 69fd 23bd f541 fe3c
000003f0: ee40 a0bd 1324 8fbc b8d8 a23d 577a 0abe
-0.019691389 -0.11014331 -0.02343962 -0.14943358 0.057036985 0.12321168 -0.020488622 0.097407006
-0.07933993 -0.011876334 -0.034357198 -0.065527454 0.0036813118 0.10140546 0.058691084 0.030832598
-0.11128053 -0.09656891 -0.049424905 -0.13734284 0.047316667 -0.082092054 0.009090072 -0.25461045
-0.076138936 -0.12554082 -0.052759543 -0.11680589 -0.08429819 0.105034314 0.0069998386 0.06700451
-0.11436384 0.062389333 0.006186598 0.024511196 -0.13051532 -0.019078728 -0.07568054 0.009027174
0.022255363 -0.041648366 0.0025503058 0.13061708 -0.03440722 -0.009467087 -0.004185823 -0.017322434
0.12228277 -0.004753158 -2.9626644e-05 -0.030735431 0.01354957 -0.022190724 0.044065375 0.019799722
-0.053045392 0.045640264 -0.0757049 0.06971022 -0.04754193 -0.038215287 0.04639045 -0.003020095
-0.01675437 0.076226056 0.018973252 -0.023091812 -0.24678531 -0.08810146 -0.0852013 0.010528758
0.028994812 -0.01786948 -0.024345636 0.23433189 0.016597962 -0.019032879 0.06952354 0.032883875
0.04042822 -0.016216647 0.033752747 0.02209303 -0.044561565 0.057955556 0.024037244 -0.026083915
-0.032073233 -0.0028734268 -0.00041004864 0.055140264 0.03811043 -0.13457578 0.09838359 -0.0076635936
0.0045337537 0.043848168 0.077273555 0.067852795 -0.076898836 -0.045074232 -0.045749348 -0.06757783
-0.019406686 0.058653463 -0.028103756 0.06733668 -0.033354357 -0.004215357 0.031204015 -0.06084312
-0.016332988 0.0752575 0.033926375 -0.005479267 0.056183573 -0.008734273 -0.055936806 0.004554668
-0.04613555 0.062848814 0.0099524595 0.025240233 -0.042881045 -0.021790726 0.025980687 -0.030929293
-0.03815997 0.07935612 -0.010109209 0.15681735 -0.086586736 -0.025338303 -0.084317215 0.03565645
-0.015491785 -0.012386218 0.010588105 0.09986782 0.032854285 0.012889585 0.0354199 -0.05043446
0.16942517 0.079252005 -0.018578097 0.056260414 0.09324918 0.018199466 0.040773045 0.25824255
-0.018560983 0.14863566 -0.008300182 0.12594306 0.047464002 0.010528456 -0.020469787 0.038623054
0.094896145 -0.10641432 -0.04323155 -0.088382564 0.18070304 0.086834826 -0.01755747 -0.007578258
-0.10508478 0.077685475 -0.008710211 -0.19558595 -0.044335317 0.070357606 -0.008733263 0.006905971
-0.20906894 -0.046929818 -0.1319265 -0.038023643 -0.012683823 -0.1949403 -0.06296102 -0.21253301
0.1303172 -0.08492718 0.02502526 -0.06851778 -0.14325896 0.12563607 -0.08448052 -0.06486764
-0.03252151 0.074623466 0.0022883366 0.16476326 -0.057710115 -6.210294e-05 -0.1139757 -0.00011158344
-0.018810123 0.014785867 -0.012637091 0.073341854 -0.00430533 0.047615312 0.048422325 -0.046244692
0.18570356 0.07998308 -0.037939336 0.09285112 0.034050256 0.0027262054 0.028200183 0.29527283
0.016193612 0.17778273 0.013184235 0.15339217 0.0380048 -0.0009041521 0.015245315 0.047562994
-0.08377651 0.024740508 0.05938987 0.03783979 -0.070212886 -0.0699234 -0.031242494 -0.02785521
0.041844115 0.088170424 -0.017535677 0.051870726 -0.03756147 -0.0663457 0.04369963 0.015266188
-0.09064916 0.037379116 0.06359433 0.03350393 -0.013281079 0.057625026 -0.05837647 -0.018716251
-0.013184115 0.010904926 -0.040036593 0.03103731 -0.07824884 -0.017473256 0.07951492 -0.13523231

transformer.h.1.ln_2.weight f4 [32]
00000000: bf88 8d3f a9fe aa3f 97ad 5c3f 718d 913f
00000010: b8b8 963f 3a21 673f 1459 9d3f b6c3 7f3f
00000020: f318 8b3f 105f 243f a69e 913f d0dd 773f
00000030: a051 6b3f ff15 513f 4a5f 723f b5ab 883f
00000040: 2061 9e3f dd5e 833f 9376 803f fee9 813f
00000050: 170b 393f bcd8 633f 8873 5c3f 8d8e 5e3f
00000060: 6073 a03f 0af5 373f 9c92 953f f494 543f
00000070: 5971 a03f c98f 453f 558f 863f d219 863f
1.1057357 1.3358966 0.8620238 1.137129 1.1775122 0.90285075 1.229281 0.99908006
1.0866989 0.64207554 1.1376541 0.96822834 0.91921425 0.8167419 0.9467665 1.0677401
1.237339 1.0263325 1.0036186 1.0149534 0.72282547 0.89002585 0.86113787 0.86936265
1.253521 0.71858275 1.1685367 0.83039784 1.2534591 0.77172524 1.0512491 1.047663
